models/lenet_mnist_1670794240.5647705.pkl (torch, 252679 bytes, 10 tensors)

weight f4 [6, 1, 5, 5]
0	0x3c520a98	0.012819909
1	0xbcb2c406	-0.021821987
2	0xbd981687	-0.07426172
3	0xbd72fa16	-0.05932053
4	0xbd970156	-0.07373302
5	0xbc485628	-0.0122275725
6	0x3b87d8a2	0.0041456977
7	0xbcc916c7	-0.024546994
8	0xbac6bbca	-0.0015162167
9	0xbd3555df	-0.044271346
10	0xbc9835bd	-0.018580312
11	0xbd0d0521	-0.03442872
12	0xbce18130	-0.027527422
13	0xbb5fb4c3	-0.0034134842
14	0x3c62008b	0.013794075
15	0xbd292478	-0.041294545
16	0xbd60bc81	-0.05486727
17	0xbc441985	-0.011968975
18	0xbcc0e49c	-0.02354651
19	0x39ae13e7	0.00033202695
20	0xbdf0a78f	-0.11750709
21	0xbde3d79e	-0.1112511
22	0xbe057215	-0.130318
23	0xbdf2149e	-0.11820339
24	0xbd442629	-0.047887955
25	0xbd0b46ca	-0.034003057
26	0xbd38fc67	-0.045162585
27	0xbd7060ff	-0.058686253
28	0xbcc85a20	-0.024457037
29	0xbd5782cd	-0.052614976
30	0xbd75cf59	-0.060012195
31	0xbd8fc2c2	-0.07019569
32	0xbd121c61	-0.035671595
33	0xbd838641	-0.06422091
34	0xbda5d13d	-0.0809655
35	0xbd99aa15	-0.07503144
36	0xbd260f21	-0.04054177
37	0xbd33653e	-0.043797724
38	0xbcfb0f28	-0.030646876
39	0xbd437214	-0.047716215
40	0xbd5f9851	-0.05458862
41	0xbd2bce12	-0.04194457
42	0xbd57a5e5	-0.052648444
43	0xbd4cbcde	-0.049984805
44	0xbcc2a437	-0.023759944
45	0xbdc53a73	-0.09630289
46	0xbda3f76b	-0.080061756
47	0xbd0f7c18	-0.035030454
48	0xbc776ff7	-0.015102378
49	0xbd07d3c6	-0.033160947
50	0x3b7de818	0.0038743075
51	0x3be68b26	0.0070356308
52	0xbc0fcf2a	-0.008777419
53	0x38f4621f	0.00011653103
54	0xbadee4b7	-0.0017005418
55	0x3b4630b2	0.0030241427
56	0xbd1bcbbf	-0.038036104
57	0x3b25fe84	0.0025328705
58	0x3c508184	0.012726191
59	0x3c432eac	0.011912983
60	0xbcb97eb9	-0.022643434
61	0xbd1371e1	-0.035997275
62	0xbd25d432	-0.04048557
63	0xbcd8807c	-0.026428454
64	0xbcbbea6d	-0.022938931
65	0xbd447ea8	-0.04797235
66	0xbd55fff7	-0.05224606
67	0xbd54b6af	-0.051932033
68	0x3b02d0a1	0.0019960778
69	0xbd26cc48	-0.04072216
70	0xbc76bc96	-0.015059611
71	0xbd00499c	-0.0313202
72	0xbc944d2e	-0.018103208
73	0xbcadd176	-0.021218043
74	0x3b2e888c	0.0026631681
75	0xbbc68526	-0.006058353
76	0xbc5a782b	-0.013334314
77	0xbd41b4ca	-0.047291555
78	0xbc091b9a	-0.008368397
79	0xbc871318	-0.016488597
80	0xbcc44aef	-0.023961512
81	0xbc29d81b	-0.010366465
82	0xbd561252	-0.052263565
83	0xbc56ca5f	-0.0131097725
84	0xbac4ccb8	-0.0015014624
85	0xbd3e2f70	-0.04643196
86	0xbcc0d2d5	-0.023538033
87	0xbcf69bc0	-0.030103564
88	0xbd4a19f7	-0.04934117
89	0xbc9ca36f	-0.0191209
90	0xbae8c70e	-0.0017759518
91	0xbc7ca561	-0.015420289
92	0xbcdf50fa	-0.027260292
93	0xbd213c79	-0.03936431
94	0xbca759f6	-0.020428639
95	0xbc0e2084	-0.0086747445
96	0xbcb87807	-0.022518171
97	0xbc943c78	-0.01809524
98	0xbcabd078	-0.02097343
99	0xbc78ffda	-0.0151977185
100	0xbd66238a	-0.056186236
101	0xbd2a0866	-0.041511916
102	0xbdbfe855	-0.09370486
103	0xbdb6c222	-0.08923747
104	0xbe23b5fc	-0.1598739
105	0xbdbf15f0	-0.09330356
106	0xbdd6e62b	-0.1049312
107	0xbd9f720a	-0.07785423
108	0xbdc3a896	-0.095536396
109	0xbe16f828	-0.14743102
110	0xbe197f1f	-0.14989899
111	0xbdf33a8e	-0.11876403
112	0xbdd57c4d	-0.10424099
113	0xbda06c9a	-0.07833214
114	0xbdf3e437	-0.11908763
115	0xbdf55ea0	-0.11980939
116	0xbdc91c08	-0.098198
117	0xbddf1d8c	-0.108943075
118	0xbdd879d0	-0.10570109
119	0xbdd12113	-0.102113865
120	0xbe1cbf4a	-0.15307346
121	0xbe002a6f	-0.12516187
122	0xbe256d21	-0.1615491
123	0xbe098b67	-0.13432084
124	0xbdd9c3e2	-0.10633065
125	0xbe99fd3a	-0.3007601
126	0xbe201716	-0.15633807
127	0xbda61f64	-0.08111456
128	0xbd9a30bd	-0.07528827
129	0x3e7e84b4	0.2485531
130	0xbea33166	-0.31873626
131	0xbe6eac7a	-0.23307982
132	0xbdf9064c	-0.12159404
133	0xbd92fc87	-0.07177072
134	0x3db6a279	0.08917708
135	0xbeaa3ee9	-0.33251122
136	0xbea60bf3	-0.32430992
137	0xbe84696c	-0.2586168
138	0xbeba6184	-0.36402524
139	0xbea9a5d9	-0.33134344
140	0xbe46a91f	-0.19400452
141	0xbe7a2ce7	-0.24431191
142	0xbe69bdbf	-0.22826289
143	0xbe89d036	-0.26916665
144	0xbe785343	-0.24250512
145	0xbd1e849c	-0.038700685
146	0xbe4492e4	-0.1919666
147	0xbdef9aff	-0.11699485
148	0xbddb09f2	-0.10695256
149	0xbdb17f38	-0.08666843

bias f4 [6]
0	0xbe2c5257	-0.16828285
1	0xbe42f432	-0.19038466
2	0xbda10c73	-0.078637026
3	0xbda84f0b	-0.08218201
4	0xbe97ba95	-0.29634538
5	0xbf20d2c5	-0.6282161

weight f4 [16, 6, 5, 5]
0	0x3c0b70a2	0.0085107405
1	0xbc438364	-0.011933181
2	0x3b80b88c	0.0039282497
3	0xbc39671a	-0.011316085
4	0xbc6404b0	-0.013917133
5	0x39bf4f2c	0.00036489347
6	0x3ba6dd81	0.0050923233
7	0xbb6d56fe	-0.0036215181
8	0xbc1464a2	-0.009057196
9	0x3c11c869	0.008897879
10	0xbc2b0b97	-0.010439775
11	0x3c3b4f71	0.0114325145
12	0xbc2823ff	-0.010262488
13	0xbc4e1fa3	-0.012580785
14	0xbba088eb	-0.0048991344
15	0xbc4736f2	-0.012159096
16	0xbb616965	-0.0034395095
17	0x3b26522e	0.0025378573
18	0xbafd0174	-0.0019302801
19	0x3b5d2614	0.003374462
20	0xbb6aec7c	-0.0035846522
21	0xbb2cef00	-0.0026387572
22	0xbbbade05	-0.0057027363
23	0x387df54a	6.0548344e-05
24	0xb9acb206	-0.00032939034
25	0xbb18ac19	-0.0023295938
26	0xbcb6094a	-0.022221226
27	0xbcacac51	-0.02107826
28	0xb995b2ab	-0.00028552613
29	0xb961c3dd	-0.00021530637
30	0xbc463a63	-0.012098881
31	0xbcfb2559	-0.030657457
32	0xbcd0f870	-0.02550909
33	0x39e2c7df	0.00043254995
34	0xbbdf86dc	-0.0068214964
35	0xbcf2d145	-0.029640803
36	0xbc4e8bd1	-0.012606577
37	0xbcc074ac	-0.023493133
38	0x3b3e3c00	0.0029027462
39	0xbcb52d94	-0.02211646
40	0xbccfd5c6	-0.02537049
41	0xbc8a7947	-0.016903533
42	0xbc8a84ec	-0.016909085
43	0xbcbae6d2	-0.022815142
44	0xbc578190	-0.013153449
45	0xbcc722ea	-0.02430864
46	0xbccd9a1d	-0.025097901
47	0xbc5fc6e3	-0.013658258
48	0xbc6a9224	-0.014317069
49	0xbcabc4bf	-0.02096784
50	0xbc5a187f	-0.013311504
51	0xbcb879b5	-0.022518972
52	0xbb79e570	-0.003813114
53	0x3bead06e	0.00716596
54	0xbbc748fe	-0.0060816994
55	0xbc8e77e6	-0.017391156
56	0x3b106680	0.002203375
57	0xbb284197	-0.002567386
58	0x3b38b75b	0.002818546
59	0xbc6fad19	-0.014628672
60	0xbc4c59f0	-0.012472615
61	0xbc9e843b	-0.019350162
62	0xbc92cd00	-0.017920017
63	0x3b1b69fd	0.0023714297
64	0xbc32ca46	-0.010912484
65	0xbc98b398	-0.018640324
66	0x39bb92a6	0.0003577668
67	0xbc55f4a1	-0.013058812
68	0xbc35a4ee	-0.011086686
69	0x3bdf377e	0.006812035
70	0xbc3f8602	-0.011689665
71	0xbc51f5f5	-0.012814988
72	0x3a1dabd1	0.00060146773
73	0xbb943ee4	-0.0045240987
74	0x3b557284	0.0032569477
75	0xbc160f48	-0.009158917
76	0xbc66aaae	-0.014078779
77	0xbc5a1389	-0.013310322
78	0x3a945f88	0.0011319974
79	0xbc391264	-0.011295889
80	0xbc49f321	-0.012326033
81	0xbc8a95c0	-0.01691711
82	0xbc962913	-0.018330133
83	0xbc312c75	-0.010813822
84	0xbc6c553b	-0.014424617
85	0xbc35866b	-0.011079411
86	0xbc30aca5	-0.010783349
87	0xbb9c25bb	-0.00476524
88	0xbc5a41b3	-0.013321328
89	0xbba493e4	-0.0050225127
90	0xbc9bedeb	-0.019034347
91	0xbca0747c	-0.019586794
92	0xbc3242ed	-0.010880214
93	0xbc35ffaf	-0.011108323
94	0xbc0405f6	-0.008058062
95	0xbb5ae533	-0.0033400774
96	0xbc0a1757	-0.008428416
97	0x3b8ca68b	0.0042923144
98	0xbb7c5add	-0.0038506307
99	0xbbdb781a	-0.006697667
100	0xbc2c91ba	-0.010532791
101	0xbbd0b875	-0.0063696452
102	0x3c19d23b	0.009388502
103	0xbc2bdbab	-0.010489385
104	0xbc40a857	-0.011758885
105	0x3b971ffb	0.0046119667
106	0xbc1a1b22	-0.009405883
107	0xbbd350cc	-0.0064488407
108	0xbbe55e36	-0.006999756
109	0x3be5652a	0.007000585
110	0x3b85ebd1	0.0040869494
111	0xbb081faf	-0.0020770838
112	0xbc07bb68	-0.008284427
113	0x3c30fb55	0.01080211
114	0xbb44c65d	-0.003002546
115	0xbbafd605	-0.0053660893
116	0xbb789311	-0.0037929455
117	0x3b7c34f2	0.0038483706
118	0x3c14496f	0.009050711
119	0xbb992693	-0.004673788
120	0xbb422ffe	-0.0029630656
121	0xbc3b2e54	-0.01142462
122	0xbbea14c7	-0.00714359
123	0x3c087df2	0.008330809
124	0x3b2d618a	0.0026455843
125	0xbc694764	-0.014238212
126	0xbbb68da6	-0.005571085
127	0x3b8ad173	0.004236394
128	0xbbfa0010	-0.007629402
129	0xbc0fda00	-0.008780003
130	0xbb3d2927	-0.002886364
131	0x3b5e553b	0.0033925313
132	0xbb7db144	-0.0038710395
133	0xbc339f6b	-0.010963301
134	0xbbf4a8fc	-0.0074664336
135	0xbbe9ee17	-0.007138978
136	0xbbc6e2c0	-0.006069511
137	0x3b4e57f7	0.0031485537
138	0xbc0b537e	-0.008503793
139	0x3b2a23e9	0.0025961346
140	0x3adf0522	0.001701508
141	0xbb216b81	-0.0024630728
142	0xbb588cca	-0.0033042901
143	0xbb1a32a6	-0.0023528724
144	0xbbde9f9d	-0.0067939297
145	0xbbe749c2	-0.007058353
146	0xbb16dc28	-0.0023019407
147	0xbaf6442a	-0.0018788625
148	0xbc540954	-0.012941677
149	0x3b38942e	0.0028164494
150	0x3b0d201b	0.002153403
151	0x3bb55255	0.0055334964
152	0xbc048a89	-0.00808967
153	0xbc63504a	-0.013874123
154	0xbc14f64e	-0.009091927
155	0x3c7a846b	0.01529036
156	0x3a8f81e6	0.0010948747
157	0xbcf0844d	-0.02935996
158	0xbc45329c	-0.012035992
159	0xbb12c058	-0.0022392478
160	0xbc01281c	-0.007883098
161	0xbb98371f	-0.004645243
162	0xba9ddb03	-0.001204342
163	0xbbc1995c	-0.0059081744
164	0xbb3e9fcd	-0.0029086948
165	0x3ba9478a	0.005165999
166	0xbc39dc73	-0.011344063
167	0xbc972626	-0.018450808
168	0x3b0a8c4d	0.0021140755
169	0x3b85585b	0.0040693707
170	0x3cbd5b39	0.023114787
171	0xba7dddf7	-0.00096842594
172	0xbc0a2bdd	-0.008433309
173	0x3c38a85e	0.011270611
174	0x3c15b885	0.009138231
175	0xbc8d1907	-0.017223848
176	0xbb9e5708	-0.0048321523
177	0xbbd55795	-0.0065106847
178	0xbcad0cbc	-0.021124236
179	0xbb2422e2	-0.0025045206
180	0xbc84bb8c	-0.01620271
181	0xbc3c2b17	-0.011484883
182	0xbcd1be8e	-0.025603559
183	0xbc529b50	-0.012854412
184	0xbbd9befd	-0.006645082
185	0xbbd1956c	-0.0063959863
186	0xbbe365fc	-0.0069396477
187	0xbbc8a793	-0.006123492
188	0xbaaed991	-0.0013339986
189	0xbb8813ac	-0.0041527357
190	0x3b834bd5	0.0040068426
191	0xbca32b98	-0.019918248
192	0xbc291516	-0.010319969
193	0xbc091883	-0.00836766
194	0xbc27787f	-0.0102216
195	0xbcc96046	-0.02458204
196	0xbca49f78	-0.020095572
197	0xbcf84add	-0.030309135
198	0xba9761da	-0.0011549548
199	0x3b9b8429	0.0047459793
200	0x3c3d0850	0.011537626
201	0xbbd21df8	-0.006412264
202	0x3b66e5d1	0.0035232196
203	0x3b4d5655	0.0031331975
204	0x3bf0b0db	0.0073453016
205	0xbab29f4d	-0.0013627798
206	0xbbf4eb15	-0.007474313
207	0x3b397f6f	0.0028304716
208	0xbc07ec72	-0.008296119
209	0xba954e89	-0.0011391203
210	0xbc1e7c68	-0.009673215
211	0xbc7bc38d	-0.015366447
212	0xbc44a9ea	-0.012003401
213	0xbbf11577	-0.007357295
214	0xbaadb518	-0.0013252823
215	0xbc08505f	-0.008319943
216	0x3b5ba13e	0.0033512856
217	0xb7ae6a92	-2.0792042e-05
218	0x3b2e473c	0.0026592752
219	0xbbc9503e	-0.006143599
220	0xbc0b7b75	-0.008513321
221	0xba3b61fe	-0.0007148086
222	0xbba27e0d	-0.004958874
223	0x3c2e818b	0.010651003
224	0xbad007bf	-0.0015871449
225	0x3c724d53	0.014788943
226	0x3b71ac40	0.003687635
227	0x3bcbafc3	0.006216021
228	0xbc822d18	-0.015890643
229	0xbbe74322	-0.0070575634
230	0x3b19e8a8	0.0023484621
231	0xbc3b843e	-0.011445103
232	0x3be92bab	0.0071158013
233	0xbc3c4975	-0.011492123
234	0x3bd6dd8d	0.0065571726
235	0xbc0ce367	-0.008599139
236	0xbba20aba	-0.0049451264
237	0x3b4a39b5	0.003085715
238	0xbc62372d	-0.0138071
239	0xbc0f2f2d	-0.008739275
240	0x3c2bf719	0.010495924
241	0xbbc78cb3	-0.0060897707
242	0x3adaa159	0.0016680165
243	0x3a0211d1	0.00049617613
244	0xbb6461fa	-0.0034848438
245	0x3bc949ff	0.006142854
246	0xbc1fc58c	-0.009751689
247	0xbc048d01	-0.008090259
248	0xbbe47f64	-0.006973194
249	0x3a6da682	0.0009065644
250	0x3bbd6fbb	0.0057811416
251	0xbcb2e335	-0.021836856
252	0xbc420788	-0.011842616
253	0xbc520116	-0.012817642
254	0xbad2fe4b	-0.0016097514
255	0x3a8dc3c5	0.001081579

bias f4 [16]
0	0xbcaca5f4	-0.021075226
1	0xbf10e4c5	-0.56599075
2	0xbdaaf6c3	-0.08347847
3	0xbd76da98	-0.06026706
4	0xbddb9b6e	-0.10723005
5	0xbe3a050f	-0.18165992
6	0xbcbe4cab	-0.023229918
7	0xbe398ffd	-0.18121333
8	0xbd5790c1	-0.052628282
9	0xbeb9e264	-0.36305535
10	0xbd0c01b4	-0.03418131
11	0xbca5208e	-0.020157125
12	0xbd8730f5	-0.06601135
13	0xbe006401	-0.12538148
14	0xbd243ee6	-0.040099047
15	0xbe136d43	-0.14397149

weight f4 [120, 16, 5, 5]
0	0xba806526	-0.000979577
1	0xbb7f402f	-0.0038948169
2	0x3b12df05	0.0022410762
3	0x3ad74c57	0.0016425949
4	0x3a750966	0.0009347409
5	0x3b8f4c20	0.0043730885
6	0x3a06505a	0.00051236677
7	0xbba173d9	-0.00492714
8	0x3b17b98a	0.0023151361
9	0x3b3ba05d	0.002862952
10	0x3befac1f	0.0073142196
11	0xbbf81023	-0.007570283
12	0x3b748aba	0.0037314133
13	0x3a9e9c6a	0.0012101058
14	0x3bdd5ba4	0.006755309
15	0xbb5225bc	-0.0032065948
16	0xbb853340	-0.0040649474
17	0xba6d8bb4	-0.000906165
18	0xbac4a31b	-0.0015002222
19	0xbbd3d40a	-0.006464486
20	0x3bb27674	0.0054462496
21	0xb8e77326	-0.000110363864
22	0xbb81bd0d	-0.003959304
23	0xbac71b1d	-0.0015190576
24	0xbbce26f2	-0.0062912637
25	0xbbe6b536	-0.007040645
26	0xbae7c848	-0.001768359
27	0xbbb3de7a	-0.0054891678
28	0xbb039dc5	-0.0020083052
29	0x3ba4c9c6	0.005028936
30	0xbaa27fe5	-0.0012397735
31	0xbb04a537	-0.0020240077
32	0xbc11f7fe	-0.008909224
33	0xb9735727	-0.00023206753
34	0xbb353ace	-0.0027653459
35	0xbc3dab4c	-0.011576485
36	0x3981a043	0.00024724202
37	0xbc28316b	-0.010265688
38	0xbb9c10da	-0.004762751
39	0xbb5ba455	-0.0033514698
40	0xbb2b727b	-0.0026160765
41	0x3b2d328b	0.002642783
42	0xbab0e8f1	-0.0013497156
43	0xbae94609	-0.0017797361
44	0xbb103add	-0.0022007741
45	0xbc060025	-0.008178745
46	0xbba28460	-0.004959628
47	0x3b94fbea	0.004546632
48	0xbb4bc7e3	-0.0031094484
49	0x3a4109a9	0.0007363805
50	0x3ba6b6e4	0.00508772
51	0x38c9007c	9.584517e-05
52	0xba4e0646	-0.0007859211
53	0x3bc86fa1	0.006116823
54	0xb9a8da6e	-0.000322062
55	0x3b82b45f	0.003988787
56	0x3a982f5c	0.0011610794
57	0xbb87a919	-0.004140031
58	0xbb861694	-0.004092047
59	0xbb6aa03d	-0.0035801076
60	0xbc07d96b	-0.008291583
61	0x3b972a08	0.004613165
62	0xbc044d4f	-0.008075072
63	0xbbe01e8a	-0.006839578
64	0x3b300208	0.002685668
65	0xbb3b10ff	-0.0028544066
66	0x3aeb0aae	0.001793226
67	0x3bc765ba	0.006085125
68	0xbabae2db	-0.0014258282
69	0x3b84f2e3	0.0040572747
70	0xba7fa8c8	-0.00097526284
71	0x3b06b107	0.0020552294
72	0x3a934ff9	0.0011239044
73	0x3bc03ac5	0.005866381
74	0xbbd3fd1a	-0.006469381
75	0xbb975183	-0.0046178713
76	0xbb1e64d1	-0.0024168978
77	0xbbdffc76	-0.0068355156
78	0x3babef60	0.0052470416
79	0xb9554176	-0.00020337649
80	0xbaba714f	-0.0014224442
81	0xbb11f506	-0.002227129
82	0xbbccd2d2	-0.0062507177
83	0x3bbc157c	0.005739866
84	0xbb6df5d1	-0.0036309848
85	0xbaeaee99	-0.0017923891
86	0xbbc40e5b	-0.0059831566
87	0xbbf43d20	-0.0074535757
88	0x3b4ae8f4	0.0030961605
89	0xbb868447	-0.004105124
90	0x3ad92088	0.0016565481
91	0xbbbb3962	-0.0057136277
92	0xbb6f1101	-0.003647864
93	0xbbe59640	-0.0070064366
94	0xbb8e6a35	-0.004346157
95	0x3b659cc9	0.0035036078
96	0x3b9fa976	0.0048724962
97	0x3b8714c5	0.004122349
98	0x3bb8b0c3	0.005636306
99	0x3bc3b94a	0.005973016
100	0x39a83df8	0.00032089627
101	0xbae89e66	-0.0017747402
102	0x3a1ef2ff	0.0006063431
103	0x3bb5d55e	0.005549117
104	0xbbf6bc68	-0.007529784
105	0xbb9a985a	-0.0047178688
106	0xbb5ab8c7	-0.0033374296
107	0xbb7edcdb	-0.0038888964
108	0xbb455761	-0.0030111896
109	0xbb36d73e	-0.002789929
110	0xbbd859b6	-0.0066024913
111	0xbc065705	-0.008199458
112	0xbc43e961	-0.011957497
113	0xbba371a0	-0.0049879104
114	0xb9c7fe10	-0.0003814553
115	0xbc023936	-0.00794821
116	0xbb54a4e4	-0.0032446915
117	0xbb952de4	-0.0045525897
118	0xbbf7b6f0	-0.0075596496
119	0xbbc3edea	-0.0059792893
120	0xbb8a6e1a	-0.004224551
121	0xb9f04cd9	-0.00045833623
122	0xbba3bab4	-0.004996622
123	0xbb8340b5	-0.0040055164
124	0x3ac859bf	0.0015285535
125	0x3b3b0b37	0.002854062
126	0xbbbc2ffc	-0.005743025
127	0xbb183ca3	-0.0023229502
128	0xb95422e0	-0.00020230887
129	0x3bc6eabe	0.006070464
130	0xbc27a0a8	-0.0102311745
131	0xba659807	-0.00087583106
132	0xbc44222e	-0.01197104
133	0xbc1574f4	-0.009122122
134	0xbc3074dc	-0.010770049
135	0x3b48f435	0.0030663137
136	0xbb36f9e7	-0.002791995
137	0xbc2e2cd5	-0.010630806
138	0xbbbd1bb3	-0.0057711243
139	0xbc0695fc	-0.00821447
140	0x3b04370d	0.0020174414
141	0x3b1388ac	0.0022511883
142	0x39e0c8ba	0.00042874162
143	0x3a9f120a	0.0012136113
144	0x3b8c98ef	0.004290692
145	0xbc628bae	-0.013827248
146	0xbbf780b8	-0.0075531863
147	0x3a7f3194	0.0009734866
148	0xbb3456ff	-0.0027517674
149	0xbb046483	-0.0020201511
150	0x3bb132ad	0.0054076524
151	0x3aa18681	0.001232341
152	0x3ab1e55b	0.0013572382
153	0xbbabd2c2	-0.00524363
154	0x3ab86ff9	0.0014071456
155	0xba8b02cf	-0.0010605695
156	0xbad50156	-0.0016251008
157	0xba0e0420	-0.0005417485
158	0xbba0b074	-0.0049038474
159	0xba063283	-0.0005119221
160	0xba8d728c	-0.0010791584
161	0x3adc610c	0.001681359
162	0xbb9a7b0d	-0.004714376
163	0xbaf85ea8	-0.0018949108
164	0x399858e9	0.00029057942
165	0x3afb3738	0.0019166237
166	0x3b9c6d64	0.0047737826
167	0xbbcd9042	-0.0062733004
168	0x3aad229b	0.0013209166
169	0xbb4caa6d	-0.0031229511
170	0x3bc5c948	0.0060359575
171	0xbb9991cf	-0.004686571
172	0xba84ca93	-0.0010131173
173	0xbaa86371	-0.0012847019
174	0x3b013848	0.0019717384
175	0xbc1c2f98	-0.009532832
176	0xbbe0a4b0	-0.00685557
177	0xbbc77b8a	-0.006087725
178	0xbb558c62	-0.0032584895
179	0xbaeecea9	-0.0018219549
180	0xbba3e3c4	-0.005001517
181	0xbb786fb8	-0.0037908386
182	0x3a776b7c	0.00094383187
183	0x3a899edf	0.0010499618
184	0xbc10bf90	-0.008834735
185	0x3a8f55fe	0.0010935662
186	0x3b2e3217	0.002658015
187	0xbb1de421	-0.0024092274
188	0xbc391a29	-0.011297741
189	0x3b0b781d	0.002128131
190	0xbc0279f3	-0.007963645
191	0x3aa9c136	0.0012951258
192	0xbb88c5cf	-0.0041739712
193	0xbb872f7f	-0.004125535
194	0xba48f6f8	-0.0007666196
195	0xbad902e6	-0.001655665
196	0x3b82cbde	0.003991588
197	0xbbc8cae7	-0.0061277035
198	0xb9c2061e	-0.0003700712
199	0x391068ec	0.00013771997
200	0xbb197165	-0.0023413536
201	0xbbc3325c	-0.005956931
202	0xbbf88219	-0.007583868
203	0x3b884f54	0.0041598473
204	0x3b6cda08	0.00361407
205	0xbbb85d82	-0.0056263814
206	0xbbfc1b1d	-0.007693662
207	0xbb614c85	-0.0034377885
208	0xbb68d741	-0.0035528692
209	0xbbaf99df	-0.005358919
210	0xbbfde04d	-0.007747686
211	0x3a92a17b	0.0011187041
212	0x3a762c16	0.00093907246
213	0x3b9b22ef	0.004734389
214	0xbbf9bbb5	-0.0076212534
215	0x3be79adb	0.0070680208
216	0xbbe32649	-0.006932054
217	0x3bac8f5e	0.005266114
218	0xba2db485	-0.0006626326
219	0x3b2c89cc	0.002632725
220	0xbbde0343	-0.006775291
221	0xbb209972	-0.0024505523
222	0xbbb9b4c9	-0.005667303
223	0x3b56d9fe	0.0032783742
224	0x3bd2cff4	0.0064334814
225	0x3b204410	0.002445463
226	0x3a11edea	0.0005566763
227	0xbaec0196	-0.0018005844
228	0x3b1f6642	0.0024322425
229	0x3b244d40	0.0025070459
230	0x3bafd34e	0.0053657657
231	0x3b70cfb2	0.003674489
232	0xbbe4c354	-0.0069812927
233	0xbb879ea6	-0.0041387854
234	0x3bb988b0	0.0056620464
235	0xbb5132e3	-0.00319212
236	0xbb93057d	-0.0044867382
237	0x3b296706	0.002584876
238	0xbbb6f020	-0.0055828243
239	0x3ba5c226	0.0050585447
240	0xbbbbae2c	-0.00572755
241	0x3b368f5a	0.002785644
242	0x3b6af4bd	0.0035851442
243	0xbbab9f07	-0.0052374634
244	0x3b47b475	0.003047255
245	0x3af1ec47	0.0018457257
246	0xbb18de6d	-0.0023325935
247	0x3b90114b	0.0043965927
248	0xbb548823	-0.0032429777
249	0xba224af6	-0.00061909796
250	0xba0bef35	-0.0005338074
251	0xbb50c8e5	-0.0031858024
252	0x3b32d32f	0.002728652
253	0x3adf08f2	0.0017016216
254	0x3b9fa2af	0.0048716883
255	0xbaf96a4b	-0.001902887

bias f4 [120]
0	0xbca3e127	-0.020004822
1	0xbc59f6b0	-0.013303444
2	0xbcbc22b4	-0.022965766
3	0x3cfb596a	0.030682284
4	0xbbb64b2c	-0.0055631604
5	0x3d0b36fd	0.033987988
6	0xbd0bb9bd	-0.03411268
7	0xbc42cbad	-0.01188938
8	0xbccae606	-0.024767887
9	0xbce69bcb	-0.02815046
10	0xbc2c9303	-0.010533097
11	0xbd0cac0f	-0.034343775
12	0xbd598c06	-0.053112052
13	0x3d29eff1	0.04148859
14	0xbda1de1d	-0.07903693
15	0xbc0e9d30	-0.008704469
16	0xbc33289a	-0.010934973
17	0x3df7f6ef	0.12107646
18	0x3ceeaa44	0.029133923
19	0xbc58083b	-0.013185556
20	0xbc145364	-0.009053085
21	0x3ccf460c	0.025301956
22	0xbc3cfd8e	-0.0115350615
23	0xbc19de6c	-0.009391408
24	0xbc5641a5	-0.013077174
25	0x3cedcba4	0.029027767
26	0x3d0ceabd	0.03440355
27	0x3d3c8e06	0.04603388
28	0xbd09b50c	-0.033619925
29	0xbd6edbcb	-0.05831508
30	0xbc053b5e	-0.00813183
31	0xba52c586	-0.00080402975
32	0xbc5f740b	-0.013638507
33	0xbc09f316	-0.008419773
34	0xbd1155a1	-0.035482053
35	0x3cdfa735	0.02730141
36	0xbae22fe0	-0.00172567
37	0x3d536097	0.051605787
38	0xbc05a646	-0.008157318
39	0xbc85de5d	-0.016341383
40	0xbb2f7222	-0.002677091
41	0xbb79fc71	-0.0038144852
42	0xbd152168	-0.03640881
43	0xbc600870	-0.013673887
44	0xbc8b6970	-0.01701805
45	0xbb922a47	-0.0044606063
46	0xbc86f91d	-0.016476208
47	0xbc74102e	-0.014896436
48	0xbc12fcb5	-0.008971383
49	0xbbb10f2e	-0.005403421
50	0xbd6ee4de	-0.058323734
51	0xbd0ea868	-0.034828573
52	0xbbfdeaf5	-0.0077489563
53	0xbdd89fcb	-0.10577353
54	0x3e27e751	0.16396834
55	0xbd9b5368	-0.07584268
56	0xbc095f0e	-0.008384479
57	0xbcc93c06	-0.024564754
58	0xbe2ada54	-0.16684848
59	0xbbfafffc	-0.0076599102
60	0xbc54100b	-0.012943278
61	0xbc521a46	-0.012823647
62	0xbbcda629	-0.0062759113
63	0xbc5cd068	-0.013477422
64	0xbc543ea1	-0.012954385
65	0xbb22b071	-0.0024824406
66	0xbc871307	-0.016488565
67	0xbc991132	-0.018684957
68	0xbb3e9827	-0.002908239
69	0xbc9b8361	-0.018983545
70	0xbc448ec1	-0.011996926
71	0x3cfa02d3	0.030518925
72	0xbbbdefed	-0.0057964236
73	0xbdfdd6fd	-0.123945214
74	0xbc10745d	-0.008816806
75	0xbc66ab2d	-0.014078897
76	0xbd1baccd	-0.038006593
77	0xbd14dc76	-0.03634306
78	0xbd9722fd	-0.0737972
79	0xbc4420a8	-0.0119706765
80	0xbbe14319	-0.0068744537
81	0xbc629fa0	-0.013832003
82	0xbc48fa51	-0.012266711
83	0xbbec0eb7	-0.0072039026
84	0xbc3ac8d8	-0.011400424
85	0xbc5529d3	-0.01301046
86	0xbca52dc4	-0.020163424
87	0xbc873d0b	-0.0165086
88	0xbcdfe4ba	-0.027330745
89	0xba205c40	-0.0006117262
90	0xbd65028e	-0.05591064
91	0x3db18e4d	0.0866972
92	0xbc2fefd0	-0.010738328
93	0x3d2dc73e	0.04242634
94	0x3bf59484	0.007494511
95	0xbbe3a358	-0.0069469623
96	0xbc44646a	-0.011986831
97	0xbc6b33bc	-0.014355596
98	0x3c72a9e5	0.014811014
99	0xbdcb2dd9	-0.09920854
100	0xbc45e820	-0.012079269
101	0xbc755aef	-0.014975294
102	0xbc63bb8e	-0.013899697
103	0x3c28eb0a	0.010309944
104	0xbb80643e	-0.0039182
105	0xbd8c067c	-0.06837174
106	0xbbb164ff	-0.005413651
107	0x3ddee15a	0.10882826
108	0xbd510f48	-0.051039964
109	0xbc0fb04f	-0.008770063
110	0xba9e7981	-0.0012090654
111	0xbc127d11	-0.008940951
112	0xbd63b649	-0.055593763
113	0x3c88ec0e	0.016714122
114	0xbc755286	-0.014973288
115	0x3d754a76	0.059885465
116	0xbb69eff5	-0.0035696004
117	0xbc465ae5	-0.012106632
118	0xbb5f3e4d	-0.0034064234
119	0xbd4ba442	-0.049717195

weight f4 [84, 120]
0	0x3bff9944	0.007800253
1	0xbc43460a	-0.011918554
2	0x3b9b87b5	0.004746402
3	0xbd0f5c41	-0.03500009
4	0x3c928600	0.017886162
5	0x3baa3375	0.0051941224
6	0xbc8d9bd0	-0.017286211
7	0xbbf6800d	-0.007522589
8	0x3c2f71a4	0.010708246
9	0x3c28c0e6	0.010299897
10	0x3b33a928	0.0027414057
11	0x3b4091e2	0.0029383828
12	0x3c3e22d2	0.0116049815
13	0xbd758e64	-0.059950247
14	0xbb2933ef	-0.0025818308
15	0x3bebaa35	0.007191921
16	0xbc3b22ec	-0.0114219
17	0xbb43b13f	-0.0029860286
18	0xbc3b411b	-0.011429097
19	0x3b876fb7	0.0041331905
20	0xbc4336fd	-0.011914966
21	0xbc285b0d	-0.010275614
22	0xbabea393	-0.0014544599
23	0xbc831692	-0.016001973
24	0xbc308ec3	-0.010776225
25	0xbd33e3a2	-0.04391826
26	0xbc1fe9de	-0.009760348
27	0xbc3d7d73	-0.011565554
28	0x3b90fa54	0.0044243727
29	0x3c95b86e	0.01827642
30	0xb9544b9b	-0.00020246061
31	0x3c4a3be5	0.0123433815
32	0x3c5125f9	0.012765401
33	0xbc99f9d7	-0.01879589
34	0xbcc12a4d	-0.02357974
35	0xbc7a61dd	-0.0152821215
36	0x3c19f3f6	0.009396544
37	0xbc6cdfbf	-0.014457642
38	0xbc36cd23	-0.011157307
39	0xbbd68bf7	-0.006547447
40	0xbc96d0ed	-0.01841017
41	0x3983a503	0.0002510921
42	0xbcda7a8a	-0.02666976
43	0xbb86016f	-0.0040895264
44	0xbc1c9c7c	-0.009558793
45	0xbba28e5c	-0.004960818
46	0x3c010a3d	0.007875976
47	0x3c1202e9	0.008911827
48	0xbc5652c9	-0.013081261
49	0x3c862596	0.016375344
50	0xbe2443b7	-0.16041456
51	0xbd13b861	-0.03606451
52	0x3c6ed5fe	0.014577387
53	0x3caf34e0	0.021387517
54	0xbcaaee9e	-0.020865735
55	0x3b8a49b9	0.004220214
56	0x3c498bfb	0.01230144
57	0xbb512d83	-0.0031917996
58	0xbdc0a78f	-0.09406959
59	0xbd863082	-0.06552221
60	0xba8e302d	-0.0010848098
61	0x39c13be2	0.00036856445
62	0x3af7c42a	0.0018903066
63	0x3c23a848	0.009988852
64	0x3c366149	0.011131593
65	0xbc547f93	-0.012969869
66	0x3b2c8f8d	0.002633068
67	0xbc8226d5	-0.015887657
68	0x3bea721d	0.0071547166
69	0x3bfc7a5d	0.0077050165
70	0xbbd29877	-0.0064268666
71	0x3b1433b9	0.0022613837
72	0xb9ee1aff	-0.0004541501
73	0xbce6c858	-0.028171703
74	0xb93c276d	-0.00017943764
75	0xbc26393d	-0.010145483
76	0x3aa4dd5b	0.0012578176
77	0xbc504b3a	-0.012713248
78	0x3cc6e1d6	0.024277609
79	0xbc1e60c6	-0.009666627
80	0xbc2f0e18	-0.010684513
81	0xbc344558	-0.011002861
82	0xbc317b09	-0.0108325565
83	0xbc3041b5	-0.010757853
84	0xbc00ceef	-0.007861837
85	0xbb3c77f6	-0.0028758026
86	0x3c17de25	0.009269272
87	0x3ad931e7	0.0016570658
88	0xbc82563e	-0.015910264
89	0xbcf077b4	-0.029353954
90	0xbcc6bb9e	-0.024259385
91	0x3b963639	0.0045841006
92	0xbca6551c	-0.020304255
93	0xbcf81fe3	-0.030288642
94	0xbca7a4d0	-0.02046433
95	0xbc0787b4	-0.0082721
96	0xbc910750	-0.017703682
97	0xbb69a70b	-0.0035652544
98	0x3c34b736	0.011030009
99	0x3cd62ce7	0.026144458
100	0x3b896942	0.004193456
101	0xbbe96453	-0.0071225553
102	0xbc40ff4e	-0.011779619
103	0x3ba423b7	0.0050091404
104	0x3bed8ff6	0.0072498275
105	0xbc95c037	-0.018280132
106	0x3c4871e0	0.012234181
107	0xbcbab19f	-0.022789774
108	0x3c5dec9c	0.013545182
109	0x3c55dad8	0.013052665
110	0xba27d905	-0.0006402883
111	0xbc47128f	-0.012150421
112	0x3d036294	0.032076433
113	0xbaabf24d	-0.0013118476
114	0xbae95ce3	-0.0017804172
115	0xbd7bccbf	-0.061474558
116	0xbc57483a	-0.013139779
117	0x3bcb49f5	0.0062038847
118	0x3c8a548e	0.016886022
119	0x3cbcdd6b	0.023054799
120	0x3bfa12c0	0.0076316297
121	0x3aede8b2	0.0018151014
122	0xbd5de756	-0.054175697
123	0xbc193f2f	-0.009353443
124	0x3b7aa4ef	0.003824528
125	0x3c658fc5	0.014011328
126	0xbc89980a	-0.01679613
127	0x3c3c29fd	0.01148462
128	0x3c0c9da5	0.008582507
129	0xbb1e756f	-0.0024178883
130	0x3be829db	0.0070850677
131	0xbddb86c4	-0.10719064
132	0x3c373663	0.0111824
133	0xbd4fe28f	-0.050753172
134	0xbcca6ccf	-0.024710087
135	0xbc440a8c	-0.011965405
136	0xba851d18	-0.0010155765
137	0xbd873b21	-0.06603075
138	0x3d1c7b62	0.038203605
139	0x3b167183	0.0022955842
140	0xbbbaaa2f	-0.005696557
141	0xba0c79d9	-0.0005358733
142	0xbcacd05e	-0.021095451
143	0xbbd702c0	-0.006561607
144	0x3bef881b	0.007309926
145	0x3dd1e3bd	0.10248516
146	0xbbd55522	-0.0065103928
147	0xbd0402f2	-0.03222937
148	0xbaa62def	-0.0012678484
149	0x3ceb9736	0.028758626
150	0x3b4c9794	0.0031218277
151	0xbbf0bc68	-0.0073466785
152	0xbc7a9365	-0.015293931
153	0x3d0d5781	0.03450728
154	0x381d5403	3.750996e-05
155	0x3a4dc376	0.00078492553
156	0x3b144cbd	0.0022628747
157	0x3c3623c7	0.011116928
158	0xbb2f4d37	-0.0026748904
159	0x3cc8945b	0.024484804
160	0xbc1f011e	-0.009704856
161	0xbc0fbcec	-0.00877307
162	0xbd7365c1	-0.059423212
163	0x3c3a1942	0.011358561
164	0xbc1d79b8	-0.00961154
165	0x3c14bd1d	0.009078291
166	0x3a6e3dc4	0.0009088183
167	0xbc060973	-0.008180964
168	0xbc739f70	-0.014869556
169	0x3b166655	0.0022949178
170	0xbd0ffd5b	-0.035153728
171	0x3d3f680b	0.046730082
172	0xbc78dfde	-0.015190093
173	0xbc9d2493	-0.019182479
174	0xbd109869	-0.0353016
175	0xbd662788	-0.056190044
176	0xbc694bc7	-0.014239258
177	0x3c1b9642	0.0094962735
178	0xbe079a96	-0.13242564
179	0xbcbedd6a	-0.023298938
180	0xbb56b6bb	-0.0032762724
181	0xbba12427	-0.00491764
182	0xbbd0820c	-0.006363159
183	0x3c2b2d50	0.010447815
184	0xbb4076ec	-0.0029367758
185	0xbb007e9e	-0.001960672
186	0xbb8fb6d5	-0.004385809
187	0xbbcb3a0e	-0.006201989
188	0xbc1d57aa	-0.00960342
189	0x3c51f456	0.012814602
190	0x3b2a51bb	0.0025988657
191	0xbc880957	-0.016606016
192	0x3b799dd2	0.0038088453
193	0xbda9b489	-0.082863875
194	0x3c439e2d	0.0119395675
195	0x3c0c9bff	0.008582114
196	0xbc9756bf	-0.018473981
197	0x3d778ed3	0.060438942
198	0xbc1f3c3c	-0.009718951
199	0x3a8ca922	0.0010731558
200	0xbd36331c	-0.044482335
201	0x3b1ad696	0.0023626438
202	0x3a8700c2	0.0010299908
203	0x3ad0eb7e	0.0015939323
204	0x3c0a2163	0.008430812
205	0xbc18637c	-0.009301063
206	0xbc372088	-0.01117719
207	0xbbc9e8fb	-0.0061618066
208	0xbcd30e9f	-0.025763808
209	0x3c09bc7d	0.0084067555
210	0x3c8897f7	0.016674025
211	0xbd842926	-0.06453161
212	0x3c43787d	0.011930582
213	0x3c9fbb97	0.01949863
214	0xb92b32e4	-0.00016326789
215	0xbc4bf355	-0.012448152
216	0xbc125bfa	-0.008933062
217	0x3c4fde69	0.012687304
218	0xbb0813ac	-0.0020763678
219	0xbd4ac2c0	-0.049502134
220	0xbcd467e4	-0.025928445
221	0x3a9395f9	0.0011259905
222	0xbbd845d4	-0.006600121
223	0xbc1fdae1	-0.009756775
224	0xbc57cb8a	-0.013171086
225	0x3d2084f7	0.039189305
226	0x3c17fc68	0.009276487
227	0xbd4cc464	-0.04999198
228	0x3c5f5080	0.013630033
229	0xbc138189	-0.009003052
230	0xbb2d84b4	-0.0026476802
231	0xbc14e4b1	-0.009087727
232	0x3c92a18d	0.017899299
233	0xbc2f0103	-0.010681394
234	0xbb9a390c	-0.0047065075
235	0xbe22f1ff	-0.15912627
236	0x3aa8a41a	0.0012866289
237	0x3b923ac5	0.0044625723
238	0x3cf06234	0.029343702
239	0x3c84b197	0.016197963
240	0xbabc20c7	-0.001435303
241	0x3bf5045e	0.0074773272
242	0xbb1d107b	-0.0023966122
243	0x3b13ab17	0.0022532397
244	0xbc04d9bb	-0.008108552
245	0xbc87d44c	-0.016580723
246	0x3c2af07c	0.0104333125
247	0xb9e6262c	-0.0004389746
248	0x3aaf44f6	0.0013371992
249	0xbbe65c09	-0.0070300144
250	0x3c604203	0.013687613
251	0x3b2ebaa1	0.0026661532
252	0x3bc6944f	0.00606016
253	0xbcc0c3ff	-0.023530958
254	0x3b3a636e	0.0028440612
255	0xbc60ef81	-0.013728977

bias f4 [84]
0	0xbc9459a5	-0.018109152
1	0x3b40e739	0.0029434694
2	0xbc86c8e5	-0.016453216
3	0x3bb7e37d	0.0056118355
4	0xbcab2c77	-0.020895226
5	0xbd2feed8	-0.04295239
6	0xbcaa48c7	-0.020786656
7	0xbda9daa9	-0.08293659
8	0xbb8cace9	-0.0042930734
9	0xbcca777b	-0.024715176
10	0xbcb86f1a	-0.022513915
11	0xbcb3eb50	-0.021962792
12	0xbdcb3f98	-0.09924239
13	0xbaf7503c	-0.0018868516
14	0xbd8eddf0	-0.06975925
15	0xbdaf7a84	-0.0856829
16	0xbbab25de	-0.00522302
17	0xbc735d2c	-0.014853757
18	0xbd3fd793	-0.046836447
19	0xbe101db0	-0.14073825
20	0xbc49156b	-0.012273173
21	0xbd9a0028	-0.07519561
22	0xbd56b35d	-0.052417148
23	0xbd1fa7fc	-0.03897856
24	0x3d47f268	0.04881516
25	0xbd28c1ae	-0.041200332
26	0xbc507591	-0.0127233425
27	0xbca8da66	-0.020611953
28	0xbcc25c8b	-0.023725769
29	0xbcaf9e96	-0.021437924
30	0xbcfbd795	-0.030742446
31	0xbc619660	-0.013768762
32	0xbda00113	-0.07812705
33	0xbda02ef9	-0.07821459
34	0xbcfa1caa	-0.030531246
35	0xbc8a8ac4	-0.016911872
36	0xbc2806b5	-0.010255505
37	0xbd8fc5cf	-0.07020151
38	0xbc86c124	-0.016449519
39	0xbd62b8bf	-0.05535197
40	0xbcd2486b	-0.025669297
41	0xbdab719d	-0.083712794
42	0xbc9507da	-0.01819222
43	0xbc9d20ab	-0.019180616
44	0xbccd1e22	-0.025038783
45	0xbcb14e5c	-0.02164381
46	0xbcbcd4b2	-0.02305064
47	0xbcc55938	-0.024090394
48	0xbdd12d46	-0.10213713
49	0xbd512611	-0.051061694
50	0xbc1a2516	-0.009408256
51	0xbd377cea	-0.04479686
52	0xbcd1c63a	-0.025607217
53	0xbde04e3e	-0.109524235
54	0xbc7725f6	-0.015084734
55	0xbbac9d74	-0.0052677933
56	0xbdc97c6a	-0.09838183
57	0xbd350276	-0.0441918
58	0xb9388690	-0.00017597736
59	0xbc2bca9d	-0.0104853185
60	0xbe3c355f	-0.18379734
61	0xbcaa0d9e	-0.020758446
62	0xbc6213d9	-0.013798677
63	0xbda52d4d	-0.08065281
64	0xbc939aa7	-0.01801808
65	0xbd22db61	-0.039759997
66	0xbcbe194d	-0.023205424
67	0xbc71349b	-0.014722015
68	0xbc670c1a	-0.014102006
69	0xbd39b723	-0.04534067
70	0xbc9831a1	-0.018578352
71	0xbb2853c0	-0.0025684685
72	0xbd452749	-0.04813317
73	0xbb27a6ce	-0.00255816
74	0x3c0e0ae9	0.008669593
75	0xbd40c2f9	-0.04706094
76	0xbb8208b0	-0.003968321
77	0xbcd92266	-0.02650566
78	0xbc89192f	-0.016735641
79	0xbcba11e6	-0.022713613
80	0xbd502ed9	-0.050825927
81	0xbcf20671	-0.029544087
82	0xbd187f6c	-0.037230894
83	0xbbaa89d5	-0.005204419

weight f4 [10, 84]
0	0xbd48515e	-0.048905723
1	0x3cb247d2	0.021762762
2	0xbb348d47	-0.0027550028
3	0x3c810e63	0.01575393
4	0xbc31f1ed	-0.010860902
5	0xbd7e88ad	-0.062142063
6	0x3ceeab65	0.029134462
7	0x3e04c2d6	0.12964949
8	0x3c6781e6	0.014130091
9	0x3b6a9bd7	0.0035798454
10	0xbc8469f2	-0.0161638
11	0xbcff4bde	-0.031164106
12	0xbe14492b	-0.14481036
13	0xbd5d77b3	-0.054069232
14	0xbb39699c	-0.0028291708
15	0x3b194974	0.0023389729
16	0x3bbda224	0.005787151
17	0xbcd84396	-0.026399415
18	0x3d858067	0.065186314
19	0xbdeb26f1	-0.11482037
20	0xbb85d449	-0.0040841443
21	0x3c3c3443	0.01148707
22	0xbc2e6d5d	-0.010646191
23	0xbc6c9a77	-0.014441124
24	0x3d71ba23	0.059015404
25	0xbd42a02c	-0.047516033
26	0xbc723cf1	-0.014785037
27	0xbb44a8d3	-0.0030007854
28	0x3c1abe5a	0.009444797
29	0xbd95a66e	-0.073071346
30	0xbd6f1a5b	-0.058374744
31	0xbba1f27c	-0.0049422365
32	0x3c94277f	0.01808524
33	0xbd6f2935	-0.058388907
34	0xbba7520f	-0.0051062177
35	0xbbc68a81	-0.0060589914
36	0xbcd8482f	-0.026401607
37	0xbd3ed87a	-0.046593167
38	0xbcacd105	-0.021095762
39	0xbbc399c8	-0.00596926
40	0xbdc48247	-0.09595161
41	0xbc849447	-0.016183985
42	0x3c177540	0.009244263
43	0xbd1d2703	-0.038367283
44	0xbcdf0c66	-0.027227592
45	0xbc6c54e5	-0.014424537
46	0xbc314bdb	-0.010821308
47	0xbcd2da39	-0.025738822
48	0x3ca4619b	0.020066073
49	0x3a11c87c	0.00055611855
50	0x3d1e7271	0.03868336
51	0xbd32b1bf	-0.043626543
52	0x3b967afc	0.0045922976
53	0xbe04fe86	-0.12987718
54	0xbd96b935	-0.07359544
55	0xbccb3584	-0.024805792
56	0x3e1bb3bc	0.15205282
57	0xbd86c053	-0.06579652
58	0xbd6fd91b	-0.058556657
59	0x3ce65f99	0.028121756
60	0x3d7d9a03	0.061914455
61	0xbd420738	-0.047370166
62	0xbd288327	-0.0411407
63	0xbd2dc911	-0.04242808
64	0xbc30648c	-0.01076616
65	0xbcf90c90	-0.030401498
66	0x3b4644ad	0.0030253336
67	0xbc377b21	-0.01119879
68	0x3d160933	0.036629867
69	0xbb3371ec	-0.0027381135
70	0xbc5398c4	-0.01291484
71	0x3d318743	0.043341886
72	0xbd1f1d36	-0.038846217
73	0xbc0318cf	-0.00800152
74	0x3b5ca58d	0.0033668012
75	0x3dd5f0b2	0.104462996
76	0xbd2a9eb9	-0.041655276
77	0xbd435ab0	-0.04769391
78	0x3c21420b	0.009842406
79	0xbce3d85f	-0.027813135
80	0xbd2cdd86	-0.04220345
81	0xbb35a8fe	-0.0027719135
82	0xbcfc0fbb	-0.03076922
83	0x3b544aff	0.0032393334
84	0x3d938af0	0.072042346
85	0xbda371f1	-0.07980717
86	0x3b49f60a	0.0030816817
87	0xbbb7a48f	-0.0056043337
88	0xbc0f3903	-0.00874162
89	0x3d5a60c2	0.05331493
90	0xbdaf32e2	-0.08554627
91	0xbce4e835	-0.027942756
92	0xbc8d52eb	-0.017251452
93	0xbca951cb	-0.020668885
94	0xbbd2919f	-0.006426051
95	0xbbf1702c	-0.0073681083
96	0xbca0e8a4	-0.019642182
97	0xbd0dce4a	-0.03462056
98	0x3b5fe86b	0.0034165632
99	0xbd71624a	-0.058931626
100	0xbc8b2a8c	-0.016988061
101	0xbb03d2b2	-0.0020114598
102	0x3d07926f	0.033098634
103	0xbd74c4ba	-0.059757926
104	0xbc71114b	-0.014713596
105	0xbbfa9a32	-0.007647776
106	0xbd4336e8	-0.047659785
107	0xbcef4bae	-0.029210892
108	0xbdd3b78a	-0.10337742
109	0xbd165c6c	-0.036709234
110	0xbb939bd4	-0.00450466
111	0xbcfbbcaa	-0.03072961
112	0xbc44ef6f	-0.012019976
113	0x3d8313a5	0.06400231
114	0xbd2cd521	-0.042195443
115	0xbaf183ea	-0.0018426154
116	0xbd963c43	-0.07335713
117	0xbd1c5457	-0.03816637
118	0x3c6e2a4b	0.014536451
119	0xbd8adab4	-0.067799956
120	0xbce594bc	-0.028025024
121	0xbdd3660f	-0.103222005
122	0x3aa983f2	0.0012933
123	0xbd0d0b3d	-0.034434546
124	0xbd059e1c	-0.032621488
125	0xbd3c5710	-0.045981467
126	0x3c0e494b	0.008684467
127	0x3bef26c5	0.007298323
128	0x3d116beb	0.03550331
129	0xbcca50e6	-0.024696779
130	0xbcec5a36	-0.02885161
131	0xba297af1	-0.0006465158
132	0xbd5c1222	-0.05372823
133	0xbd5de63a	-0.05417464
134	0xbd781234	-0.060564235
135	0xbd2bdb6e	-0.04195731
136	0x3c494063	0.012283417
137	0xbd5548c3	-0.052071344
138	0xbd0e8485	-0.03479435
139	0xbb33ab2d	-0.002741526
140	0x3e2e42b0	0.17017627
141	0x3c880aed	0.016606772
142	0x3c2b370a	0.010450134
143	0xbcf166ea	-0.029468019
144	0xbdd775c5	-0.1052051
145	0xbb6c431d	-0.0036050745
146	0x3c9c46cf	0.019076733
147	0x3d06c79e	0.032905214
148	0xbc7b3f9e	-0.015334992
149	0x3c745a42	0.014914097
150	0x3b3f0564	0.00291475
151	0xbcc1e0db	-0.02366679
152	0xbd298575	-0.04138704
153	0x3a357a18	0.00069227954
154	0xbc5da5fa	-0.013528341
155	0xbd03257d	-0.032018173
156	0x3d03c380	0.032168865
157	0x3b1b216b	0.0023671042
158	0xbc7eed36	-0.015559485
159	0xbce2f80d	-0.02770617
160	0x3c58ac21	0.0132246325
161	0xbcb8d64f	-0.022563128
162	0xbc42b691	-0.011884348
163	0xbcc00a4b	-0.023442408
164	0x3bcf9e74	0.0063360278
165	0xbcb5715b	-0.022148779
166	0x3d8203c2	0.06348373
167	0xbc8fd843	-0.017559176
168	0xbcf6b217	-0.030114217
169	0x3cb28c94	0.021795548
170	0x3b7a286c	0.0038171066
171	0xbb6d5549	-0.0036214164
172	0xbbe95da7	-0.00712176
173	0xbd418e4c	-0.047254845
174	0x3b56a922	0.003275462
175	0xbc5eb027	-0.013591803
176	0xba98b8cd	-0.0011651755
177	0xbc805452	-0.015665207
178	0xbbd1605c	-0.0063896608
179	0x3cc533b9	0.024072515
180	0x3d130909	0.03589729
181	0x3daaac70	0.08333671
182	0xbc0123f6	-0.007882109
183	0x3cf979de	0.030453619
184	0xbbd5ce4b	-0.006524836
185	0x3b8e14d5	0.0043359795
186	0x3d252c8c	0.040325686
187	0x3e2185ef	0.15773748
188	0x3b0c2633	0.0021385073
189	0x3b920d7b	0.0044571734
190	0xbd3e6549	-0.04648331
191	0x3c163582	0.009168031
192	0xbd599523	-0.053120743
193	0x3b907a4a	0.0044091092
194	0x3bc65690	0.0060527995
195	0xbc8764c6	-0.016527545
196	0x3c762c57	0.01502522
197	0xbd10cd0a	-0.03535179
198	0xbd1041dc	-0.03521906
199	0xbb24e51c	-0.0025160974
200	0xbe04e77e	-0.12978932
201	0x3da1470f	0.078748815
202	0x3c291173	0.010319102
203	0xbd209e33	-0.03921337
204	0x3d5f5297	0.054522123
205	0x3e68d86a	0.22738805
206	0xbb024de6	-0.0019882857
207	0x3cfb2dca	0.030661482
208	0x3dc5d094	0.09658924
209	0x3b53df7f	0.003232926
210	0x3b94d1d6	0.004541616
211	0xbbfa6b61	-0.007642195
212	0x39e0b9da	0.0004286308
213	0xbd1df653	-0.03856499
214	0x3b621348	0.0034496356
215	0x3cf59f71	0.029983254
216	0xbe35f54f	-0.17769359
217	0x3d0762f8	0.03305337
218	0x3c955684	0.01822973
219	0x3cf16d69	0.029471116
220	0xbbfd83d8	-0.0077366643
221	0x3dc260e6	0.09491138
222	0x3c48d1d1	0.012257055
223	0xbccc2603	-0.02492047
224	0xbd2002ff	-0.039065357
225	0x3cd86a8c	0.026417993
226	0xbc729f9a	-0.01480856
227	0xbc2ec6f1	-0.0106675485
228	0x3d464289	0.048403297
229	0xbb6e46ed	-0.0036358193
230	0xbcad164d	-0.021128798
231	0x3d8e7f1f	0.0695784
232	0x3cfec196	0.031098168
233	0x3b9eb778	0.0048436485
234	0x3b8e070c	0.004334336
235	0xbc26081a	-0.0101337675
236	0x3ce4fc13	0.02795223
237	0x3c9dfcf7	0.019285662
238	0xb924dc2c	-0.00015722279
239	0x3ae15c30	0.0017193612
240	0xbaade7ae	-0.0013267898
241	0xbc82dcf4	-0.0159745
242	0xbd0544b2	-0.032536216
243	0xbba741c6	-0.0051042764
244	0xbce1f547	-0.027582778
245	0x3d77075d	0.060309757
246	0x3ca29d8d	0.019850517
247	0xb9ec6520	-0.00045088772
248	0xbd96b027	-0.07357817
249	0xbc2b6cdf	-0.010462969
250	0x3dbacc18	0.09120959
251	0x3c7679cd	0.015043688
252	0xbd3d397a	-0.046197392
253	0xbd556d71	-0.052106325
254	0x3c7d753f	0.015469848
255	0xbd1d0038	-0.038330287

bias f4 [10]
0	0xbd566c8d	-0.052349616
1	0x3debb453	0.115090035
2	0x3d898ef3	0.067167185
3	0xbd7aa79a	-0.061194994
4	0x3d9a95b2	0.07548083
5	0xbe4b5562	-0.1985679
6	0x3da497bf	0.08036756
7	0x3dcbd1c1	0.09952117
8	0xbdf3cf73	-0.11904802
9	0x3c2a24c6	0.010384744
