models/lenet_mnist_1670794699.7199438.pkl (torch, 252679 bytes, 10 tensors)

weight f4 [6, 1, 5, 5]
0	0xbc036922	-0.008020671
1	0xbc5ce4d9	-0.013482296
2	0xbc5c98bd	-0.01346415
3	0xbc63d8c4	-0.013906661
4	0xbc13ef56	-0.00902923
5	0xbcb65de2	-0.022261564
6	0xbcc04a59	-0.023472952
7	0xbd0f2f4f	-0.034957226
8	0xbc4975ca	-0.0122961495
9	0xbc8785ac	-0.016543232
10	0xbcc0caff	-0.023534296
11	0xbc1b6fad	-0.009487075
12	0xbcd0343f	-0.025415538
13	0xbbf6e520	-0.007534638
14	0xbc199443	-0.009373727
15	0xbcc7198d	-0.024304176
16	0xbcf76c88	-0.030203119
17	0xbcce1896	-0.025158208
18	0xbcce9f30	-0.02522239
19	0xbcbb6c3d	-0.02287876
20	0xbcd44997	-0.025913997
21	0xbc6d7692	-0.014493601
22	0xbce278af	-0.027645437
23	0xbc91ab5d	-0.017781908
24	0xbaf639b6	-0.001878551
25	0x3eac3218	0.33631968
26	0x3f522919	0.8209396
27	0x3f4d8b77	0.8029093
28	0x3f7e4d6c	0.99336886
29	0x3f977445	1.1832358
30	0xbee48f14	-0.4464041
31	0x3d8be8d6	0.06831519
32	0x3e1f9487	0.15584002
33	0xbe2c5955	-0.16830952
34	0xbdda86fc	-0.106702775
35	0xbf49fee5	-0.78904563
36	0xbf17619a	-0.59133303
37	0xbf33256d	-0.6997898
38	0xbf4cab45	-0.79948837
39	0xbf52d9e7	-0.8236374
40	0xbed7c225	-0.42140308
41	0xbf28a504	-0.65876794
42	0xbf593f6d	-0.84862405
43	0xbf4ce3c4	-0.8003504
44	0xbee31b14	-0.44356596
45	0x3e7cbd86	0.24681672
46	0xbd5088d2	-0.050911732
47	0x3e3dbec4	0.18529803
48	0x3f0cdc7a	0.5502392
49	0x3f0b375d	0.5438135
50	0xbd3ad881	-0.04561663
51	0xbd4cfd03	-0.05004598
52	0xbce6fdd1	-0.028197201
53	0xbd66e988	-0.056375057
54	0xbd0fdb09	-0.035120998
55	0xbd383c95	-0.04497965
56	0xbd086cd5	-0.033306915
57	0xbd4e4eb2	-0.05036802
58	0xbd0ec296	-0.03485354
59	0xbd1d55eb	-0.038412016
60	0xbd5f8acd	-0.05457573
61	0xbd478bd5	-0.04871734
62	0xbd633be8	-0.055477053
63	0xbd15d214	-0.0365773
64	0xbd58459c	-0.05280076
65	0xbd91d21d	-0.07120154
66	0xbd7290d1	-0.05922014
67	0xbd8ed977	-0.06975072
68	0xbd3a630e	-0.045504622
69	0xbcc06b17	-0.023488564
70	0xbd36d80b	-0.04463963
71	0xbd302cc3	-0.043011438
72	0xbd32c956	-0.04364904
73	0xbd5cf77c	-0.053946957
74	0xbcc18fe7	-0.023628188
75	0x3e709814	0.23495513
76	0xbdb9f0cf	-0.09079134
77	0xbe9c4330	-0.3052001
78	0xbec014b4	-0.37515795
79	0x3cb30217	0.021851582
80	0x3ea9cd6b	0.33164534
81	0x3e514780	0.20437431
82	0xbf01e774	-0.50743794
83	0xbf68b47d	-0.90900403
84	0xbf2f9110	-0.6858072
85	0xbd45d7a0	-0.04830134
86	0x3f548c4f	0.83026594
87	0x3ecbffc3	0.39843568
88	0xbe93af20	-0.28844547
89	0xbec37a8c	-0.38179433
90	0xbe20f510	-0.15718484
91	0x3f5f11d5	0.87136585
92	0x3f92f094	1.1479669
93	0x3f145b2a	0.57951605
94	0xbd484c9d	-0.04890119
95	0xbe83af0f	-0.25719497
96	0xbe785236	-0.24250111
97	0x3dab7b0e	0.0837308
98	0x3ea458d9	0.32099035
99	0x3e30f5f7	0.17281328
100	0xbea5e486	-0.32400912
101	0x3ef74df2	0.48301655
102	0x3f9921fc	1.1963496
103	0x3eef0e03	0.46690378
104	0x3e56cc56	0.20976385
105	0x3e7c5e18	0.24645269
106	0x3f4cedab	0.8005015
107	0x3ec3b655	0.38225046
108	0xbf4fdfbd	-0.8120077
109	0xbf0f922c	-0.56082416
110	0x3c4472cb	0.011990259
111	0x3ef0acbf	0.47006795
112	0xbea6228b	-0.3244823
113	0xbf1eeee2	-0.62083256
114	0x3d6a5f8f	0.057220038
115	0x3c98c517	0.018648667
116	0x3df51e2e	0.11968647
117	0xbdc27466	-0.094948575
118	0x3da1e0d4	0.07904211
119	0x3da5bee8	0.08093053
120	0xbd00bbbb	-0.031429034
121	0xbcffba0c	-0.031216644
122	0x3d68ce91	0.056837622
123	0x3d258d99	0.04041824
124	0xbe93b630	-0.28849936
125	0xbd147578	-0.03624484
126	0xbd44cfac	-0.048049614
127	0xbd38110a	-0.044938125
128	0xbd40cec9	-0.047072206
129	0xbd28f293	-0.04124696
130	0xbd29a729	-0.041419182
131	0xbd745396	-0.059650026
132	0xbd3205b5	-0.043462474
133	0xbd39946f	-0.045307573
134	0xbd2b3c1e	-0.04180538
135	0xbd85fa4b	-0.0654188
136	0xbd959970	-0.073046565
137	0xbd59c8da	-0.053170063
138	0xbd417374	-0.047229245
139	0xbd810470	-0.062996745
140	0xbda1b091	-0.078950055
141	0xbda64957	-0.08119457
142	0xbd872258	-0.065983474
143	0xbd4b5106	-0.049637817
144	0xbd7fe3f3	-0.06247325
145	0xbd9d3d39	-0.07677693
146	0xbda53082	-0.08065893
147	0xbd9ad653	-0.0756041
148	0xbd6e2a65	-0.0581459
149	0xbd389cb0	-0.045071304

bias f4 [6]
0	0xbd9e5fc4	-0.077331096
1	0xbe3c61df	-0.1839671
2	0xbe2ae190	-0.16687608
3	0xbf03ac66	-0.51434934
4	0xbec9002a	-0.39257938
5	0xbe67db3a	-0.22642222

weight f4 [16, 6, 5, 5]
0	0x3b1b55f2	0.002370235
1	0xbc3dadaf	-0.011577054
2	0xbc098f1e	-0.008395938
3	0xb9d7612f	-0.00041080403
4	0x3bc144d6	0.0058980985
5	0x39129490	0.00013978989
6	0xbbf5418c	-0.0074846204
7	0x3a3e685e	0.0007263477
8	0x3af605d2	0.0018770045
9	0x38bfdb8f	9.148486e-05
10	0xbc239d51	-0.009986238
11	0xbc10de8e	-0.008842124
12	0x3b292105	0.0025807035
13	0xbbec6e35	-0.007215286
14	0x3b2bf348	0.0026237536
15	0xbbd092f4	-0.0063651744
16	0x3b4c3f94	0.0031165825
17	0xbb543d1e	-0.0032385061
18	0x3b042a9f	0.0020167006
19	0xbbe531d7	-0.0069944668
20	0x3b33e0b9	0.0027447178
21	0xbad17b1b	-0.0015982123
22	0xb8817095	-6.1721694e-05
23	0xbbe0ffac	-0.006866416
24	0xbc0e0f47	-0.008670635
25	0x3d27bc82	0.04095126
26	0x3ca97dd9	0.020689892
27	0xbe21d2d3	-0.1580308
28	0xbe33efea	-0.17571989
29	0x3c26fd6a	0.010192255
30	0x3d523472	0.051319547
31	0xbdcb2d6f	-0.09920775
32	0xbe34a276	-0.17640099
33	0xbe892e8a	-0.2679332
34	0xbe4a9b3a	-0.19785777
35	0x3c97871f	0.018497048
36	0xbd84dabc	-0.06487033
37	0xbe38bdc1	-0.18041135
38	0xbef45fa5	-0.4772922
39	0xbe1c6fde	-0.15277049
40	0xbd67e81d	-0.056617845
41	0x3e110f26	0.14165935
42	0x3cfe689f	0.031055747
43	0xbed4096b	-0.41413435
44	0xbef68f73	-0.48156318
45	0xbe351ddc	-0.17687172
46	0x3d17e95b	0.03708778
47	0x3bb2b490	0.0054536536
48	0xbe84b00b	-0.2591556
49	0xbe9d0443	-0.30667314
50	0xbc92e6f8	-0.0179324
51	0xbc9df021	-0.019279541
52	0xbc453604	-0.012036804
53	0xbc483522	-0.012219699
54	0xbb560c22	-0.003266104
55	0xbbd38220	-0.006454721
56	0xbba361e0	-0.004986033
57	0xbbee55fa	-0.007273433
58	0xbbe555ca	-0.0069987522
59	0xbb8b515a	-0.004251641
60	0xba09ad88	-0.00052519934
61	0xba67e609	-0.00088462286
62	0xbaa177da	-0.0012319044
63	0xbbad709a	-0.005292964
64	0x3b148d5d	0.0022667267
65	0x3b1b66e2	0.0023712446
66	0xbc0be1f2	-0.008537756
67	0xbae4f31c	-0.0017467472
68	0x39e750b1	0.00044119873
69	0xbba93867	-0.0051641944
70	0xbba2dc2f	-0.0049700956
71	0xbc414856	-0.011797031
72	0xbb93238f	-0.004490323
73	0xbbb80462	-0.005615757
74	0xba219eeb	-0.0006165343
75	0xbce797c9	-0.028270619
76	0xbdc78120	-0.097414255
77	0x3e127c55	0.14305241
78	0x3e895975	0.26826063
79	0x3e50138a	0.20319954
80	0xbc429ad1	-0.011877731
81	0x3d78bd79	0.06072757
82	0xbe9ab078	-0.3021276
83	0xbe10d4e8	-0.14143717
84	0xbe92d3c2	-0.28677183
85	0x3e1d3d9a	0.1535553
86	0x3e78038e	0.24220106
87	0xbf042481	-0.516182
88	0xbe2746f4	-0.1633566
89	0x3ef6195a	0.48066217
90	0xbe1bd0f7	-0.15216433
91	0x3e0b455b	0.13600676
92	0xbe1aa1e5	-0.1510082
93	0xbf071ec6	-0.5278133
94	0x3f20b61b	0.6277787
95	0x3ceefe7e	0.029174086
96	0x3de728d1	0.11287082
97	0x3dbbc6fb	0.09168812
98	0xbef24299	-0.47316435
99	0x3e074acc	0.13212126
100	0xbdcec33a	-0.1009583
101	0xbd8ae615	-0.06782166
102	0x3dc33fe8	0.095336735
103	0x3d8c375c	0.068464965
104	0xbe1177bd	-0.14205833
105	0xbe4f92ed	-0.20270891
106	0xbe03caef	-0.12870382
107	0xbe1d2f86	-0.1535016
108	0x3d01ad25	0.031659264
109	0x3e114e1c	0.14189953
110	0xbe9a703c	-0.30163753
111	0xbc9e8dc1	-0.019354703
112	0xbe57cb56	-0.2107366
113	0x3d5a4414	0.05328758
114	0x3f22f244	0.6365092
115	0xbe02c64d	-0.12770958
116	0x3e3ce640	0.18447208
117	0xbe47e415	-0.195206
118	0xbeb4422a	-0.3520673
119	0x3ec6033e	0.3867435
120	0x3e6dfdf5	0.23241408
121	0x3e9cb3e5	0.30606
122	0xbe3cedd8	-0.18450105
123	0xbf3a6bc8	-0.7282071
124	0x3d8fbcdb	0.07018443
125	0xbcab1b31	-0.02088699
126	0xbcc19154	-0.023628868
127	0xbcb3e7b5	-0.021961072
128	0xbca3c1b6	-0.01998983
129	0xbbe7aa9f	-0.0070699
130	0xbc37d568	-0.011220314
131	0xbca96f91	-0.020683082
132	0xbcb97267	-0.02263756
133	0xbc9382c1	-0.018006684
134	0xbbb19d4e	-0.0054203635
135	0xbba9811c	-0.0051728617
136	0xbc95e92a	-0.018299658
137	0xbc8b92cd	-0.017037774
138	0xbc6f6c6e	-0.014613254
139	0xbc2765f5	-0.01021718
140	0x3bdff187	0.006834212
141	0xbbfcc2cf	-0.0077136527
142	0xbaf1eb52	-0.0018456972
143	0xbc14bfb5	-0.00907891
144	0xbbdb8f0b	-0.0067004017
145	0x3a82a8b4	0.000996849
146	0xbb424629	-0.002964387
147	0x3b058d45	0.0020378393
148	0x3b987598	0.00465269
149	0xbb7416a3	-0.0037244938
150	0xbb780772	-0.0037846235
151	0x3a63fdf7	0.00086972065
152	0xbbf473ee	-0.007460109
153	0xbc031aa8	-0.008001961
154	0x3b58afec	0.0033063842
155	0x3a4fe1a5	0.0007930047
156	0xbbe99f77	-0.0071296054
157	0x3b228106	0.0024796142
158	0xbbdf4a76	-0.0068142964
159	0x3bdede82	0.0068014273
160	0xb9910a21	-0.00027664102
161	0x3b691f18	0.0035571512
162	0x3b315a53	0.0027061894
163	0xbb69ffee	-0.0035705524
164	0x3bf3b65b	0.00743751
165	0xbb56ff11	-0.003280584
166	0x39706d57	0.00022928916
167	0x3bbbf72f	0.0057362537
168	0xbb23a62b	-0.002497087
169	0x3b8909cf	0.0041820775
170	0xbc02287f	-0.007944225
171	0xbbaac20c	-0.0052111205
172	0xbb3ca8ec	-0.0028787209
173	0xbb9ddc8e	-0.004817552
174	0xba163c2f	-0.0005731014
175	0xbbbb6692	-0.0057190144
176	0xbb799d20	-0.0038088039
177	0x3ba9333a	0.0051635774
178	0xbb0da619	-0.0021613894
179	0xbbf5f233	-0.007505679
180	0xbbc17e0e	-0.0059049195
181	0xba860227	-0.001022403
182	0xba5fbab1	-0.0008534594
183	0xbbe2f2e2	-0.0069259265
184	0x3b84d3fb	0.0040535904
185	0xbb741588	-0.003724428
186	0x3bb1c5b6	0.0054251803
187	0xbaa566d5	-0.0012619147
188	0xbb8ffd37	-0.0043941992
189	0xbb9446fc	-0.0045250636
190	0xbb9a5643	-0.00470999
191	0xbb29e6f9	-0.0025925024
192	0xb80310a9	-3.124835e-05
193	0x3bc8a351	0.0061229845
194	0xbbc78b37	-0.0060895937
195	0x3b3513d7	0.0027630234
196	0x3b98575d	0.0046490864
197	0xbb473d4f	-0.0030401533
198	0x3b217bd9	0.002464047
199	0x3b209b05	0.0024506461
200	0xbc1a7d0f	-0.00942923
201	0xbb4db7d7	-0.0031390095
202	0x3a3a64c9	0.0007110355
203	0xbc00495a	-0.007829988
204	0x3a047f8d	0.0005054407
205	0x3b9f028e	0.0048525995
206	0x3aa6e57b	0.0012733185
207	0x3a8982b6	0.0010491225
208	0x3a916577	0.0011092861
209	0x3a3fee79	0.0007321607
210	0x3ba16c22	0.0049262205
211	0xbbb1ce8f	-0.005426235
212	0xbb027697	-0.001990711
213	0xb950d1e4	-0.00019914616
214	0xba58a58c	-0.00082644145
215	0xbbe6bd02	-0.0070415745
216	0xbc2c5aeb	-0.010519723
217	0xbb3e6df4	-0.0029057236
218	0x3a2694a6	0.0006354548
219	0x3bb0c4c8	0.005394552
220	0xbc1588df	-0.009126871
221	0xbc140943	-0.009035411
222	0xba0cefb7	-0.00053762965
223	0xbbdc5fb9	-0.006725278
224	0x3b936674	0.0044982973
225	0xbc1b5f4d	-0.009483171
226	0xbc84bf24	-0.016204424
227	0xbc0c4e29	-0.008563557
228	0xbbe242c6	-0.0069049327
229	0xbbc3d670	-0.0059764907
230	0xbc95c6df	-0.018283306
231	0xbbe4448f	-0.0069661806
232	0xbc5f066a	-0.013612369
233	0xbc9281f8	-0.01788424
234	0xbc892687	-0.016742004
235	0xbc0a7e4c	-0.008452963
236	0xbc8b4f22	-0.017005507
237	0xbc1d4493	-0.009598869
238	0xbbbcbdff	-0.005759954
239	0xb860fda9	-5.3642e-05
240	0xba969e0d	-0.0011491195
241	0xbb68782b	-0.0035472016
242	0xbc49308b	-0.01227964
243	0xbb4de41a	-0.0031416477
244	0xbbdd1354	-0.006746689
245	0xbb93cf4d	-0.004510796
246	0xbc7b34c4	-0.0153324045
247	0xbae851fe	-0.0017724631
248	0x3b926d72	0.0044686133
249	0x3bddaa5d	0.0067646937
250	0xbb73eeff	-0.003722131
251	0xbc26c1eb	-0.01017807
252	0xbc61dd25	-0.013785635
253	0xbc06b0cf	-0.008220865
254	0xbb764f2b	-0.003758381
255	0xbc0358d2	-0.008016782

bias f4 [16]
0	0xbdeadb0c	-0.11467561
1	0xbca3001d	-0.019897515
2	0xbd1a8590	-0.03772503
3	0xbd82efa7	-0.06393366
4	0xbe1dbfe1	-0.15405227
5	0xbd169bd8	-0.036769718
6	0xbef09fd5	-0.46996942
7	0xbec605e8	-0.3867638
8	0xbd28b120	-0.041184545
9	0xbd475718	-0.048667043
10	0x3dc00a2d	0.09376941
11	0xbd3d03d8	-0.046146244
12	0xbdcac8a0	-0.099015474
13	0xbceabe18	-0.028655097
14	0xbef7b8f1	-0.48383287
15	0xbd0f79d9	-0.035028312

weight f4 [120, 16, 5, 5]
0	0x3a6b7e84	0.0008983391
1	0x3b4691ce	0.0030299309
2	0xbbb1400f	-0.0054092477
3	0xbaf245c4	-0.0018483927
4	0x3aa002d0	0.001220787
5	0x3a93a36a	0.0011263911
6	0xbb02fd6a	-0.0019987472
7	0x3a33d522	0.00068600674
8	0xb95ad466	-0.00020869225
9	0x3b8a92cd	0.004228926
10	0xbb8187b2	-0.0039529437
11	0xbb960b8c	-0.004579013
12	0xbac2bcc2	-0.001485728
13	0x3abb05e2	0.0014268721
14	0xbb97da1d	-0.0046341554
15	0xbabfe95b	-0.0014641689
16	0x39adc8e1	0.00033146798
17	0xbb0ae56e	-0.002119388
18	0x3ac21814	0.0014808201
19	0x3a1bf2fa	0.0005948987
20	0xb9edf403	-0.00045385965
21	0x3b4593a4	0.0030147815
22	0xbae91c12	-0.0017784855
23	0xbb534293	-0.0032235726
24	0xbb01d6c3	-0.0019811846
25	0x3b72e7c5	0.0037064415
26	0x3b6023e3	0.0034201078
27	0xbb647c35	-0.0034864072
28	0x3b424e3a	0.0029648677
29	0xbb6b74c3	-0.003592775
30	0xbb04f71b	-0.0020288888
31	0xbb00ca44	-0.001965181
32	0xbad397f5	-0.0016143309
33	0x3aaa1eb4	0.0012979121
34	0x3ae9fedd	0.0017852444
35	0xbb69e96e	-0.0035692113
36	0xbadd9753	-0.001690606
37	0xbb8d6af1	-0.004315727
38	0xbb50c111	-0.0031853358
39	0x3b330845	0.0027318161
40	0xba9b1a63	-0.0011833425
41	0x393619f6	0.00017366544
42	0xbbe0e4c4	-0.0068632085
43	0xbbb495b9	-0.0055110124
44	0x3b161f83	0.0022906966
45	0x3ab01e9c	0.0013436857
46	0xbb4b1856	-0.0030989847
47	0x3ae88a79	0.0017741463
48	0xbbb4c4e9	-0.0055166376
49	0x3b106842	0.0022034799
50	0xba461862	-0.0007556734
51	0xbadf0c92	-0.0017017296
52	0x3b12a63c	0.0022376915
53	0x3af0dd0d	0.0018376425
54	0xbb91d006	-0.004449847
55	0xbafb792a	-0.001918589
56	0xbb4ad24c	-0.00309481
57	0xbb0fff95	-0.0021972407
58	0xbb70b29f	-0.003672756
59	0xbb842734	-0.0040329937
60	0xbbd032a7	-0.0063536945
61	0xbba16f7e	-0.004926621
62	0xbc16ce19	-0.009204411
63	0xba435cd6	-0.00074524933
64	0xbb0e0a7c	-0.002167373
65	0xbaa21ac0	-0.0012367591
66	0xbbb0dc44	-0.0053973515
67	0xbbd25cf1	-0.006419771
68	0xbbf75cb8	-0.0075488947
69	0x38d0905e	9.9451034e-05
70	0xbb162398	-0.00229094
71	0xbab59221	-0.0013852754
72	0xbbb1ff26	-0.0054320274
73	0xbbdd1460	-0.0067468137
74	0xb89a3c9c	-7.3545816e-05
75	0x3b1bfcd7	0.0023801827
76	0xbb82938a	-0.003984873
77	0x3b28f793	0.0025782331
78	0x3b5ad51e	0.0033391188
79	0x3b2330a8	0.0024900828
80	0xbb3d6256	-0.0028897724
81	0xbb98866c	-0.004654696
82	0x3a371715	0.00069843355
83	0x3b68de32	0.003553283
84	0xbb7a2dce	-0.0038174274
85	0xbadae04e	-0.0016698928
86	0xbbc5efbf	-0.006040543
87	0xbaaa8a1e	-0.0013011133
88	0xba16284f	-0.00057280523
89	0xbb916f26	-0.0044382988
90	0x3a681b8a	0.00088542013
91	0xbb84eba2	-0.00405641
92	0xbbb0c688	-0.0053947605
93	0xbb6d68b6	-0.0036225743
94	0xbb786b02	-0.0037905579
95	0x3a8fdb7e	0.0010975448
96	0xba53ad70	-0.00080748554
97	0x3b6ae4e3	0.0035841994
98	0xba58c934	-0.00082697277
99	0xb9906e00	-0.00027547777
100	0x3b3adc99	0.0028512834
101	0xbb511c08	-0.0031907577
102	0xbb3c2878	-0.0028710645
103	0xbba55073	-0.0050449907
104	0xbb6e611a	-0.0036373795
105	0xbb18f230	-0.0023337714
106	0xbba41373	-0.0050072013
107	0x3af51c96	0.0018700536
108	0xbb897751	-0.004195132
109	0x3b26e0b8	0.0025463533
110	0xbab9513f	-0.0014138593
111	0x3aa26e4a	0.0012392488
112	0xbaf404ea	-0.0018617187
113	0xbb9d140b	-0.004793649
114	0xbb51fe9e	-0.0032042633
115	0xbbd0eb27	-0.0063756886
116	0xbbf0b7e9	-0.0073461425
117	0xbb73cd1b	-0.003720111
118	0xbc19d934	-0.009390164
119	0xbb3076ca	-0.0026926273
120	0xbbbccefe	-0.00576198
121	0xbc1a97cb	-0.009435604
122	0xba3186a5	-0.0006772078
123	0xb9887b16	-0.00026031648
124	0xbb82a819	-0.003987324
125	0x3b22f8ec	0.0024867607
126	0xbbc07f8a	-0.005874579
127	0xbbbe55b2	-0.0058085555
128	0xbab200bb	-0.001358054
129	0xbb0136ba	-0.0019716457
130	0x3a265a35	0.00063458394
131	0x3afbdfc1	0.0019216464
132	0xbb838688	-0.00401384
133	0x382a690f	4.0629002e-05
134	0xbb85b1e1	-0.0040800427
135	0xbafccf22	-0.0019287805
136	0xbc071e6b	-0.008246998
137	0xbc041fa0	-0.008064181
138	0xbbacb092	-0.0052700723
139	0x3b952f99	0.004552793
140	0xbc2b4691	-0.010453836
141	0xbc51eb88	-0.012812503
142	0xbc1e1346	-0.00964815
143	0xbc02b7a5	-0.007978355
144	0xbbf583b6	-0.007492508
145	0xb94f577d	-0.0001977365
146	0xbbde0c6a	-0.006776382
147	0xbc0b2db0	-0.0084947795
148	0xbc5f6d07	-0.013636834
149	0xbb9aeffc	-0.0047283154
150	0x3b28f05a	0.0025778026
151	0xbba02df8	-0.0048882924
152	0xbb32fd56	-0.0027311645
153	0x3b57e106	0.003294052
154	0x3859d9ca	5.1939664e-05
155	0x394d378c	0.00019571016
156	0x3b072175	0.0020619307
157	0x3a17ec23	0.000579538
158	0xbb9b608a	-0.004741733
159	0xba813e32	-0.0009860455
160	0xba4f17c0	-0.00078999624
161	0x3aea3acf	0.001787031
162	0xbb8f8df0	-0.004380934
163	0x3ac8f044	0.0015330394
164	0xba6b9df8	-0.0008988078
165	0x3b07a595	0.002069806
166	0x3b66ac87	0.003519805
167	0x3a49a51c	0.0007692145
168	0xbb77e409	-0.0037825129
169	0xbb6269ae	-0.0034547853
170	0xbb7c40c9	-0.0038490763
171	0x390d4e2e	0.00013475932
172	0x3b71a170	0.0036869906
173	0x3a6fed02	0.00091524434
174	0xbb4df7f8	-0.0031428318
175	0x3a8540b7	0.0010166381
176	0xbad1178f	-0.0015952456
177	0xbbb19776	-0.005419667
178	0xba718ae1	-0.0009214115
179	0xbb5c9ae3	-0.0033661656
180	0xba8055cb	-0.0009791193
181	0x3b4cc6ea	0.0031246492
182	0xbb8a0a3c	-0.004212646
183	0xbaf3ff7b	-0.0018615568
184	0xbafafebf	-0.0019149407
185	0xb897e9ca	-7.243788e-05
186	0xb98e5970	-0.00027150987
187	0xbb091f2b	-0.0020923119
188	0xbb17036a	-0.0023042806
189	0x3b418711	0.0029529969
190	0xba76111e	-0.0009386706
191	0xba0c5652	-0.0005353439
192	0xbaf23933	-0.0018480181
193	0xbb76d657	-0.0037664378
194	0x3b1ae700	0.0023636222
195	0xbb462219	-0.0030232726
196	0xbbd6d0f0	-0.006555669
197	0xb988f0af	-0.00026119265
198	0x3b4f93d2	0.00316738
199	0x39621dba	0.00021564114
200	0xbb810094	-0.0039368365
201	0x3a6c85ea	0.00090226403
202	0xbb93701b	-0.004499448
203	0xbac23427	-0.0014816568
204	0xbb17e2b0	-0.0023175888
205	0x3b0d46ea	0.002155716
206	0xba87e4cc	-0.0010367869
207	0xbbdbbb62	-0.0067056874
208	0xbb97f039	-0.004636791
209	0xb94014e4	-0.00018318329
210	0x3a942c53	0.0011304714
211	0xbc365715	-0.01112916
212	0xbc57c661	-0.013169856
213	0xbc0734b9	-0.008252316
214	0xba916311	-0.0011092146
215	0x3a2fa19a	0.0006699801
216	0xbbf1a1d7	-0.007374029
217	0xbc5f7c2c	-0.013640445
218	0xbc1391fc	-0.009006973
219	0xbbd0fb7b	-0.006377635
220	0x3b765603	0.0037587888
221	0x39a31556	0.0003110568
222	0xbbe1ceb9	-0.0068910983
223	0xbbd7830a	-0.0065769004
224	0xbb61d517	-0.0034459287
225	0xbb58ff50	-0.0033111162
226	0x3ae333a5	0.0017334117
227	0xba1dbecc	-0.00060175057
228	0xba265017	-0.0006344332
229	0x3b24d303	0.0025150187
230	0x3955bf3c	0.00020384503
231	0xbb84bb13	-0.0040506213
232	0x3a700ced	0.00091571995
233	0xb9986869	-0.0002906949
234	0xbb68def6	-0.0035533286
235	0xbbd93491	-0.006628581
236	0xbb321dde	-0.0027178447
237	0xbb49dd44	-0.003080205
238	0xbc057f89	-0.0081480825
239	0x38b42630	8.590182e-05
240	0xbb95e7f8	-0.004574772
241	0xbc54ec93	-0.012995857
242	0xbc4e98fe	-0.012609718
243	0xbc3bf5de	-0.0114721935
244	0xbb9cdda8	-0.0047871657
245	0xbb90d81c	-0.0044202935
246	0xbc2c9724	-0.010534082
247	0xbc0a31e5	-0.008434747
248	0xbb8e06bd	-0.0043342994
249	0xbb8972fb	-0.004194615
250	0x3b0342e0	0.0020028874
251	0x3b707c0b	0.003669503
252	0x38e8ed16	0.00011106783
253	0x3b565507	0.003270449
254	0x3b85fd89	0.0040890616
255	0x3b1ae225	0.0023633328

bias f4 [120]
0	0x3aee6240	0.001818724
1	0xbc44e6aa	-0.012017885
2	0xbb2fb62e	-0.0026811468
3	0xbbb2732f	-0.00544586
4	0xbaa5d53a	-0.0012652047
5	0xb938f4a8	-0.00017638749
6	0xbd31d727	-0.043418076
7	0x3cc66b73	0.024221158
8	0x3d206fbe	0.039169066
9	0xbb8cece2	-0.0043006996
10	0xbb15904f	-0.002282161
11	0xbd4d6549	-0.05014542
12	0x3d02cf97	0.031936254
13	0xbbd67f8b	-0.006545966
14	0x3aadedd2	0.0013269729
15	0xba414b99	-0.00073736307
16	0x3dc2cf03	0.095121406
17	0x3b959815	0.0045652487
18	0xbadc620b	-0.0016813887
19	0x3b145dac	0.002263884
20	0xbc51d2b8	-0.012806587
21	0xbd2bfdc0	-0.04199004
22	0xbbcf494f	-0.0063258777
23	0xbc29b6a6	-0.010358488
24	0xbba385c5	-0.004990312
25	0xbc6032dd	-0.013684002
26	0xbc30330e	-0.01075436
27	0xbba2a23c	-0.0049631875
28	0x3b715e07	0.0036829726
29	0xba9b5d19	-0.0011853307
30	0xbcad8647	-0.021182192
31	0x3a64d981	0.00087299204
32	0xbccb3982	-0.024807695
33	0xbd3ca246	-0.046053194
34	0x3d1408e8	0.036141306
35	0x3e1f2ccb	0.15544431
36	0xbba6a402	-0.005085469
37	0x3b44c846	0.0030026599
38	0x3d94ac3a	0.07259412
39	0xbb7a9ede	-0.0038241665
40	0xbd043d7f	-0.03228521
41	0xbcdbfb0f	-0.026853113
42	0x3cdf266b	0.027239999
43	0xbca1dd25	-0.01975877
44	0xbb8d8f01	-0.004320026
45	0xbcd533a2	-0.026025597
46	0xbd3e8be8	-0.046520144
47	0x3b0f5d6b	0.002187575
48	0xbc8dd7d6	-0.017314833
49	0xbd81fb58	-0.06346768
50	0xbb0cd7ab	-0.0021490853
51	0xbb985e13	-0.0046498864
52	0xbd15552d	-0.036458183
53	0xbb2a1d54	-0.0025957422
54	0xbc348bb4	-0.011019636
55	0x3d601ca1	0.054714803
56	0xbbb18f63	-0.0054187044
57	0xbd3288ff	-0.04358768
58	0xbc135548	-0.008992501
59	0xbb2a93bf	-0.0026028005
60	0xbd21a62e	-0.039465122
61	0xbba5560a	-0.005045657
62	0x3c8c7294	0.017144479
63	0x3a091cb0	0.000523041
64	0xbab7a4f9	-0.0014010958
65	0x3c2c784d	0.010526729
66	0xbc054249	-0.008133479
67	0xbcf2386f	-0.029567925
68	0xbbf98daf	-0.007615767
69	0xbd479b17	-0.04873189
70	0xbc991e54	-0.01869122
71	0x3a9d213a	0.0011988052
72	0xbbc61343	-0.0060447766
73	0xbd566f16	-0.052352034
74	0xbb88dc43	-0.004176648
75	0x3d5b53fa	0.053546883
76	0xbab6322a	-0.0013900448
77	0xbbef6c78	-0.0073066317
78	0xbaf04759	-0.001833181
79	0x3bdae28b	0.006679838
80	0xbaf83e00	-0.0018939376
81	0x3cc2193f	0.023693679
82	0x3a5cdcd1	0.0008425238
83	0xbb0a7f18	-0.0021132883
84	0x39b2fb1d	0.000341379
85	0x3baedd25	0.005336421
86	0x398d1ece	0.00026916567
87	0xbcfa333d	-0.03054201
88	0x3b21bdf6	0.0024679876
89	0xbb2c5cc4	-0.002630041
90	0xbdb1b4bd	-0.08677051
91	0x3dc2f1d7	0.095187835
92	0x3b66727b	0.003516345
93	0x3bdd27a5	0.0067491108
94	0xbb40965b	-0.0029386494
95	0xbbd2ef4d	-0.0064372183
96	0xbcebfe83	-0.028807884
97	0xbbae6bb2	-0.005322897
98	0xbc9af2a0	-0.01891452
99	0x3b80614b	0.003917848
100	0xbd7dc45a	-0.061954834
101	0xbb99215b	-0.0046731657
102	0xbd6c2a61	-0.057657603
103	0x3c6c68a5	0.014429246
104	0xbd7ca023	-0.061676156
105	0xbdb21979	-0.08696265
106	0xbba83d45	-0.005134257
107	0xbb0c54d1	-0.002141286
108	0x3cad3c54	0.02114693
109	0x3dfa2ad0	0.12215197
110	0xbd0b0543	-0.033940565
111	0xbb2f4427	-0.0026743503
112	0xbba618b2	-0.005068862
113	0xbc4b6e22	-0.012416394
114	0x3cd92847	0.026508464
115	0xbd94ca49	-0.07265145
116	0xbb046323	-0.0020200692
117	0xbb1f494a	-0.0024305158
118	0x3add8e02	0.0016903284
119	0x3d98aae4	0.0745447

weight f4 [84, 120]
0	0x3a6a5e59	0.00089404505
1	0xbbb8993b	-0.005633501
2	0x3c07bcc8	0.008284755
3	0x3bd2c95b	0.006432695
4	0xbbe24e92	-0.006906339
5	0x3bf378a8	0.007430155
6	0xb9cc9fb8	-0.00039028912
7	0x3b9b9eab	0.0047491393
8	0x3b1ed772	0.0024237302
9	0xbc05f1ee	-0.008175356
10	0x3a881ca0	0.0010384507
11	0xbbe92fb9	-0.0071162847
12	0xbb789335	-0.003792954
13	0xbbb3e609	-0.005490069
14	0xba8c2d24	-0.0010694605
15	0x3a28df3c	0.0006441956
16	0xbacabf8d	-0.0015468464
17	0x3b69c284	0.003566892
18	0xbbb4b52c	-0.0055147614
19	0x3b5d2833	0.0033745884
20	0xbc839517	-0.016062303
21	0x3c1ad1ea	0.0094494615
22	0x3be2208b	0.006900852
23	0xbb025dee	-0.0019892412
24	0xbc45f575	-0.012082447
25	0xbc4eb239	-0.012615734
26	0xbc8f54ca	-0.017496485
27	0x3c38c83a	0.0112782065
28	0xbc07231d	-0.008248118
29	0xbc74cfd7	-0.014942131
30	0xba38f8d8	-0.00070561236
31	0xba540d15	-0.00080891076
32	0xbbc147c4	-0.0058984477
33	0xbbc84b55	-0.006112496
34	0x3ad2483d	0.0016043257
35	0xbb8af44e	-0.004240549
36	0xba279230	-0.0006392328
37	0xbc870de5	-0.016486118
38	0xbb79ff7b	-0.0038146663
39	0x3bcdbac5	0.006278368
40	0xbb8fdda1	-0.004390434
41	0xbbc4f348	-0.0060104467
42	0x3c323f1e	0.010879306
43	0x3bbbd0cf	0.005731679
44	0x3ad4e6a2	0.001624305
45	0xbc0ab8e6	-0.008466935
46	0x3bfbe088	0.0076866783
47	0xbbd15c11	-0.006389149
48	0xbab36d66	-0.001368922
49	0x3a044f47	0.00050472136
50	0x3ab814c1	0.0014044271
51	0x3b865a78	0.00410014
52	0xbbd5f89d	-0.006529881
53	0xbc18c3ae	-0.009323997
54	0x3b960ead	0.004579386
55	0xbc66337c	-0.014050361
56	0xbc1d6e82	-0.009608867
57	0x398939a7	0.0002617363
58	0xbc209a84	-0.009802464
59	0xbb9c7e02	-0.0047757635
60	0xbc1af468	-0.009457685
61	0xbc44931a	-0.011997962
62	0xbb3738ff	-0.0027957556
63	0x3c23e84d	0.010004115
64	0x3c0dcc3b	0.008654649
65	0xbba2ddf8	-0.0049703084
66	0x3b1133b0	0.0022156052
67	0xbc8aa763	-0.01692552
68	0xbc1b0ff9	-0.009464257
69	0xbc2d1f3b	-0.010566528
70	0x3ae2ba4f	0.0017297956
71	0xba6a57ea	-0.0008939492
72	0xbb4900de	-0.0030670683
73	0x3c3a2633	0.0113616465
74	0x3b5f94e3	0.0034115843
75	0x3b3a5c21	0.002843626
76	0x3b87b37d	0.0041412697
77	0xbb8414eb	-0.004030814
78	0x3bc0cf74	0.0058841053
79	0x3a02da8e	0.00049916736
80	0xbb1cc853	-0.0023923113
81	0xbbe8736a	-0.0070938366
82	0xba466272	-0.000756777
83	0xba165dac	-0.0005736004
84	0xbac976be	-0.0015370471
85	0xbb8fcb4b	-0.004388248
86	0xbaab63e7	-0.0013076038
87	0xbbfeae93	-0.0077722757
88	0xbb960c99	-0.0045791385
89	0xbbca9cdc	-0.00618325
90	0xbc68b307	-0.01420284
91	0xbbe36363	-0.006939338
92	0xbc20a173	-0.0098041175
93	0xb72cdee5	-1.0303896e-05
94	0x39862b39	0.00025590675
95	0xbaa1ed73	-0.001235409
96	0xbc80b0f0	-0.01570937
97	0x3b5a4c58	0.0033309665
98	0x3bd22e0c	0.0064141806
99	0xbb071537	-0.002061201
100	0xbc96161f	-0.018321095
101	0xbbe15485	-0.0068765306
102	0x3b862da6	0.004094797
103	0x3b84f7ac	0.004057845
104	0xbbac3532	-0.005255365
105	0xbb9c4e56	-0.0047700806
106	0xbc6abe90	-0.01432766
107	0xb9ad3e0b	-0.00033043357
108	0xbb638818	-0.003471857
109	0xbc462f93	-0.0120963035
110	0xbb9a24d4	-0.0047040973
111	0xbbac2ad1	-0.0052541276
112	0xbc012eda	-0.007884705
113	0xbc79e7d5	-0.015253027
114	0xbbb80ce8	-0.005616773
115	0xb90a13a8	-0.00013168028
116	0xbc4e6162	-0.01259646
117	0xbcb306a2	-0.021853749
118	0xbbe81105	-0.007082107
119	0xbb2119f1	-0.0024582113
120	0x3be20cdb	0.006898505
121	0xbb4dbeca	-0.0031394237
122	0xbb2d437f	-0.0026437936
123	0xbaf4aab6	-0.0018666598
124	0xbc27637e	-0.010216592
125	0x3c2ae423	0.010430369
126	0xbe15bc65	-0.14622648
127	0xbdd2e383	-0.10297301
128	0x3e2cc759	0.1687292
129	0xbcb6f24b	-0.022332331
130	0x3ae37ec3	0.0017356504
131	0x3e6521dd	0.22376199
132	0xbcbb8c57	-0.022894068
133	0x3dae46ce	0.08509599
134	0xbd073383	-0.03300811
135	0xbb95a75e	-0.004567071
136	0xbe03a89e	-0.12857291
137	0xbe25ad90	-0.1617949
138	0xbc3d318f	-0.01154746
139	0x3b6c36d0	0.0036043413
140	0xbd9b44a1	-0.07581449
141	0xbde8c7a8	-0.113662064
142	0xbc0328ee	-0.008005364
143	0xbe0ae557	-0.13564049
144	0xbc2633e1	-0.010144205
145	0xbd64b0e0	-0.055832744
146	0xbd56faf3	-0.052485418
147	0x3e84bb76	0.2592427
148	0xbd428adf	-0.04749572
149	0xbcf04a72	-0.029332373
150	0x3dd059d0	0.101733804
151	0xbcaa3f18	-0.020782039
152	0x393f52e7	0.00018246063
153	0xbdac5d43	-0.08416226
154	0xbe0193a1	-0.12653972
155	0xbe1affb4	-0.15136606
156	0xbc777575	-0.0151036875
157	0x3dbea9b0	0.09309709
158	0x3e120344	0.14259058
159	0xb9da32c1	-0.00041618015
160	0xbda991d7	-0.0827977
161	0xbd7474da	-0.05968175
162	0x3bfb981d	0.0076780454
163	0x3dab18af	0.083543174
164	0xbd099943	-0.033593427
165	0x3ea0df21	0.31420234
166	0xbe34a266	-0.17640075
167	0xbc44bd67	-0.012008048
168	0xbe29d87f	-0.16586493
169	0x3bc4504f	0.005991019
170	0xbb2f8dce	-0.0026787403
171	0xbd715a22	-0.058923848
172	0x3e188615	0.14894898
173	0xbba356ad	-0.004984698
174	0x3cb5144d	0.022104407
175	0x3eb3397a	0.3500479
176	0xbe0eec5e	-0.13957354
177	0x3de870f6	0.113496706
178	0xbc2d2f9c	-0.010570433
179	0xbcb5e32b	-0.022203049
180	0xbd26ffea	-0.040771402
181	0xbc9900f2	-0.018677209
182	0x3d9d36d7	0.076764755
183	0x3accc203	0.0015621785
184	0xbb12217e	-0.0022297795
185	0xbc977b56	-0.018491428
186	0xbb18f698	-0.002334034
187	0xbcc13cb5	-0.023588518
188	0xbe1a97fa	-0.15097037
189	0x3d82d800	0.06388855
190	0x3e9d1e29	0.30687073
191	0xbc5e2c68	-0.013560392
192	0xbc3c511e	-0.011493949
193	0x3e89bc3e	0.2690143
194	0xba8b41e7	-0.0010624499
195	0x3dd00aaf	0.10158288
196	0xbc093886	-0.008375293
197	0xbb3caa6e	-0.0028788107
198	0x3c1301dd	0.008972612
199	0xbe19b79d	-0.15011449
200	0xbc2e8b0f	-0.010653271
201	0x3e2ffb39	0.17185678
202	0xbc1eab7a	-0.009684438
203	0xbb2e4f71	-0.0026597644
204	0x386c0b49	5.6277295e-05
205	0x3daa1729	0.08305199
206	0x3a45a850	0.0007540034
207	0xbd4c71aa	-0.049913086
208	0xbbc69b40	-0.0060609877
209	0x3c18e660	0.009332269
210	0x3ba5ab97	0.0050558555
211	0xbe567ca3	-0.20945983
212	0xbdd0f9f9	-0.102039285
213	0x3dab5820	0.08366418
214	0x39881cf4	0.00025961513
215	0xbd1ce25e	-0.038301818
216	0xbda55539	-0.080728956
217	0xbc0ca3b2	-0.00858395
218	0x3cb9aaa9	0.022664385
219	0xbc73ecab	-0.014887969
220	0xbe9e1f1f	-0.3088312
221	0xbd0c787d	-0.034294594
222	0xbe26df87	-0.16296206
223	0xbc77f804	-0.015134815
224	0x3dedf764	0.11619452
225	0x3d64d7c0	0.055869818
226	0xbc8fa1df	-0.01753324
227	0xbc1386fa	-0.009004349
228	0xbd2b7a93	-0.041864943
229	0xbdc03e74	-0.09386912
230	0xbe6b022a	-0.22950044
231	0x3d2dd3f3	0.04243846
232	0x3b8cbe13	0.0042951196
233	0xbd492a97	-0.049112882
234	0x3cdaa904	0.026691921
235	0xbe558b7a	-0.20853987
236	0xbca4e13b	-0.02012693
237	0xbcc54d36	-0.024084669
238	0xbc4e8992	-0.0126060415
239	0xbe2b799d	-0.1674561
240	0x3c0e136e	0.008671625
241	0x3cc75533	0.024332618
242	0x3c42aaa0	0.0118815005
243	0xbb951a38	-0.0045502447
244	0xbbc81c38	-0.0061068796
245	0xbbe0b13d	-0.006857066
246	0xbb22a3f3	-0.002481696
247	0x3c42bedf	0.0118863275
248	0x3cacabfb	0.0210781
249	0xbc029971	-0.007971154
250	0x3ba9b260	0.0051787347
251	0x3bb91513	0.005648264
252	0xb9819d72	-0.00024722103
253	0x3c289531	0.010289476
254	0x3b62636f	0.003454413
255	0xbbba1a50	-0.005679406

bias f4 [84]
0	0xbc5fa077	-0.013649098
1	0x3ea1e6d2	0.31621414
2	0x3cab9ff1	0.02095029
3	0xbcf2a681	-0.02962041
4	0x3c9e3102	0.019310478
5	0xb97a4e82	-0.00023871104
6	0x39f449aa	0.0004659419
7	0x3cd9cc44	0.02658666
8	0xbc77b25b	-0.015118207
9	0x3e3beefb	0.18352883
10	0x3d399676	0.045309506
11	0x3daed4ee	0.08536707
12	0x3c52d583	0.012868288
13	0x3df97c4b	0.1218191
14	0x3d30646f	0.04306453
15	0x3d614033	0.054992866
16	0xbc94fe83	-0.018187767
17	0x3d107dc8	0.035276204
18	0x3ddb0fd4	0.10696378
19	0xbc0dc3e5	-0.008652662
20	0xbbd3d8d7	-0.0064650583
21	0x3bc599af	0.0060302834
22	0xbc2229f0	-0.009897694
23	0xbb34e441	-0.002760187
24	0x3ab293a1	0.0013624319
25	0x3b5c1a0b	0.0033584859
26	0x3d65ce54	0.056104973
27	0xbc093d5a	-0.008376444
28	0x3d865218	0.06558627
29	0x3d7e5dbd	0.062101115
30	0xbc6be96e	-0.014398916
31	0xbc136cbd	-0.008998093
32	0xbc44d2b5	-0.012013127
33	0xbc681e16	-0.014167329
34	0x3cad9e8b	0.021193763
35	0x3dbf0006	0.09326176
36	0xbcbcb55f	-0.023035703
37	0x3d0d25fb	0.03446005
38	0x3e3bf10c	0.18353671
39	0xbacaba0c	-0.0015466823
40	0x3c89c22e	0.016816225
41	0x3d2cf8b0	0.042229354
42	0x3d2326df	0.039831992
43	0xbbcd70cd	-0.0062695504
44	0xbb982015	-0.0046424964
45	0x3aef5ed6	0.0018262516
46	0x3baa85e9	0.0052039516
47	0x3da4f84e	0.08055173
48	0x3d85b746	0.06529097
49	0xbb01b2b8	-0.0019790363
50	0x3b165839	0.0022940768
51	0x3dd2c961	0.10292316
52	0xbba9aa53	-0.005177775
53	0x3c3a0904	0.011354689
54	0x3d0a24b3	0.033726405
55	0xbc3e2d52	-0.011607485
56	0x3e53bf41	0.20678426
57	0x3dd48983	0.10377791
58	0x3d9eb632	0.07749595
59	0xbcc49013	-0.023994481
60	0xbd1667f5	-0.036720235
61	0xbb98db0d	-0.0046647848
62	0x3da51ce2	0.080621496
63	0x3e2e8b6d	0.17045374
64	0x3d616030	0.055023372
65	0x3c494b0c	0.012285959
66	0x3d95de45	0.07317785
67	0xbc9c1d33	-0.019056892
68	0xbbdbfbe6	-0.0067133782
69	0x3dccf5c2	0.10007812
70	0x3cfabb58	0.03060691
71	0x3e0117db	0.12606756
72	0x3e2e0b4b	0.16996495
73	0x3d0e3c14	0.034725264
74	0x3d8fec64	0.0702751
75	0x3e30dfc4	0.1727286
76	0x3db215a7	0.08695536
77	0x3dcfde5e	0.10149835
78	0x3d8b9dbf	0.06817197
79	0x3c7b1d29	0.015326777
80	0x3d0de258	0.034639686
81	0x3d07f1e6	0.033189677
82	0xbb5d6c6a	-0.0033786544
83	0x3db1fabe	0.086904034

weight f4 [10, 84]
0	0x3c5a24ef	0.01331447
1	0xbbecd3c5	-0.0072273933
2	0xbd3a525e	-0.045488708
3	0xbe0055ca	-0.12532726
4	0xbcb94293	-0.022614753
5	0x3cde014f	0.027100233
6	0x3d71a098	0.058991045
7	0x3a0bb808	0.0005329852
8	0x3d2108a0	0.039314866
9	0xbb37eaa0	-0.0028063431
10	0x3d91c532	0.0711769
11	0xbdd1762e	-0.10227619
12	0x3da4983e	0.080368504
13	0xbe0765aa	-0.13222376
14	0xbd25962a	-0.04042641
15	0x3de75a87	0.112965636
16	0xbd1078e5	-0.035271544
17	0xbdc2970a	-0.09501465
18	0xbdfe4cd1	-0.12416995
19	0xbb7f3a7f	-0.0038944778
20	0x3bc9f001	0.006162644
21	0xbd425438	-0.0474436
22	0xbb27a2a6	-0.0025579124
23	0x3cce7d68	0.025206283
24	0x3caa65b9	0.020800458
25	0xbca585a5	-0.020205328
26	0xbe139c44	-0.1441508
27	0x3bbdf324	0.005796807
28	0x3dbef6d5	0.09324423
29	0xbdcea3d0	-0.100898385
30	0x3c9aece4	0.018911786
31	0xbcc9ae3d	-0.024619216
32	0x3b62b52f	0.0034592857
33	0xbd8cd30b	-0.06876191
34	0x3e1adeff	0.15124129
35	0xbdb665d6	-0.089061424
36	0x3cb6a21f	0.022294102
37	0xbd232201	-0.03982735
38	0x3e276aed	0.16349383
39	0x3e27dd6d	0.16393061
40	0x3b43c1a5	0.002987006
41	0x3ed895dc	0.42301834
42	0x3df5433b	0.11975714
43	0xbe06647b	-0.13124268
44	0x3d031c9e	0.032009713
45	0xbe4453e9	-0.19172634
46	0x3d1f1cf7	0.038845982
47	0xbda75ae2	-0.081716314
48	0x3b4fe786	0.0031723692
49	0xbd572c8d	-0.05253272
50	0xbcb8e140	-0.022568345
51	0x3d8533e3	0.06504037
52	0xbbbc1b1b	-0.005740536
53	0x3b05df21	0.0020427185
54	0xb9ea2151	-0.0004465678
55	0x3d0a6ca2	0.033795007
56	0xbe06cde6	-0.13164482
57	0xbd93d042	-0.072174564
58	0xbd86dfd1	-0.06585658
59	0x3f362b4a	0.71159804
60	0x3cc8f7eb	0.024532279
61	0x3c177720	0.00924471
62	0xbdeac410	-0.11463177
63	0xbe75c5df	-0.24001263
64	0xbdf85466	-0.12125473
65	0x3eb997ca	0.36248618
66	0xbd71771f	-0.058951493
67	0x3b345721	0.0027517753
68	0xbd2e6e8b	-0.04258589
69	0xbe190677	-0.14943872
70	0xbd4ac789	-0.049506698
71	0xbcb250df	-0.021767078
72	0xbe3f29b6	-0.18668255
73	0xbcf8a64d	-0.030352736
74	0x3baf5c02	0.0053515444
75	0xbe077805	-0.13229378
76	0xbe1d9907	-0.15390407
77	0xbd9573e9	-0.07297499
78	0xbcf4a68b	-0.02986457
79	0xbda1dabd	-0.07903049
80	0xbc958280	-0.018250704
81	0x3cc2b3fd	0.023767466
82	0xbb73c3c8	-0.0037195552
83	0x3d8ead18	0.06966609
84	0xbaed2f1e	-0.0018095707
85	0xbdcd3fb5	-0.10021917
86	0xbb8d3ffa	-0.004310605
87	0x3dbbce0c	0.0917016
88	0xbbf0589e	-0.0073347827
89	0xbc1a5062	-0.009418579
90	0x3d081362	0.03322161
91	0xbceada15	-0.028668443
92	0x3d405368	0.046954542
93	0x3ec590c0	0.38586998
94	0xbcb6ac6c	-0.022299014
95	0x3e6df0ba	0.23236361
96	0xbd8ac3a7	-0.06775599
97	0xbdf5530e	-0.11978732
98	0xbcd5f9e0	-0.026120126
99	0xbda431b2	-0.08017291
100	0x3bb8a5e2	0.005635009
101	0xbd0c087d	-0.034187783
102	0xbe5aae4f	-0.21355556
103	0x3c046627	0.008080996
104	0xbc830fe1	-0.015998783
105	0xbde57810	-0.11204541
106	0x3a8d64b7	0.0010787462
107	0x3c8fc6c2	0.01755083
108	0xbc9e4b52	-0.019323025
109	0xbbfd5316	-0.007730852
110	0xbd3fa6cc	-0.04678993
111	0x3c04ffce	0.008117629
112	0xbd474fac	-0.048659965
113	0xbe57bea4	-0.21068817
114	0x3cb2d9fe	0.021832462
115	0xbb741727	-0.0037245245
116	0xba0e4b2e	-0.0005428073
117	0xbded91f3	-0.11600103
118	0xbd98328f	-0.07431518
119	0xbdaf455a	-0.0855815
120	0x3d312882	0.043251522
121	0xbc702cc0	-0.014659107
122	0x3e837825	0.256776
123	0xbd86470d	-0.065565206
124	0xbd807b1f	-0.062734835
125	0xbdc07bfc	-0.09398648
126	0xbd3e3efa	-0.046446778
127	0xbe2ed13d	-0.17072006
128	0x3cd62a49	0.02614321
129	0x3bd475c8	0.006483767
130	0xbcf97827	-0.0304528
131	0x3ed63666	0.41838378
132	0xbcfcc34c	-0.030854844
133	0xbd21c7f0	-0.039497316
134	0xbb2636c3	-0.002536223
135	0xbdf8910e	-0.12137042
136	0x3b1799ba	0.00231324
137	0xbd60f21e	-0.0549184
138	0xbc4a3541	-0.012341798
139	0xbde11c7a	-0.109917596
140	0xbe45879c	-0.19290012
141	0xbdbaab8d	-0.09114752
142	0xbc6dd65a	-0.014516437
143	0xbe30908d	-0.17242642
144	0x3d577b58	0.052607864
145	0xba7ab348	-0.0009563458
146	0xbe2a5777	-0.16634928
147	0x3f24eab3	0.6442062
148	0xbd25cb73	-0.040477227
149	0xbdcee400	-0.10102081
150	0x3e655640	0.22396183
151	0xbda466c1	-0.08027411
152	0x3c335a94	0.0109468885
153	0xbe97a742	-0.29619795
154	0x3e4271d5	0.18988736
155	0x3d9ebc43	0.07750752
156	0xbd9f3cd1	-0.07775272
157	0xbdc540c7	-0.09631496
158	0x3ea7e49d	0.32791606
159	0x3d28b064	0.041183844
160	0x3dc4c18b	0.09607228
161	0xbde0287c	-0.10945222
162	0xbdd1655e	-0.102244124
163	0x3de34d84	0.11098769
164	0xbdc21dd4	-0.094783455
165	0x3cc1cfc6	0.023658644
166	0x3c646ad5	0.013941486
167	0xbe4afa94	-0.1982215
168	0xbc02e7a6	-0.0079898
169	0xbd8fae26	-0.07015638
170	0xbd2d08ee	-0.042244844
171	0xbb6ae8b3	-0.0035844266
172	0x3e3f6250	0.18689847
173	0xbc754f85	-0.014972572
174	0x3cfd3976	0.030911189
175	0x3da11da9	0.07866985
176	0x3d78cfaa	0.06074492
177	0xbe7e046f	-0.24806379
178	0xbd25cf2f	-0.04048079
179	0xbcb53727	-0.022121025
180	0xbd829a6f	-0.06377112
181	0xbe648d47	-0.22319518
182	0x3e242d3d	0.16032882
183	0x3e2a866e	0.16652843
184	0xb9504e1d	-0.00019865525
185	0xbde73ea9	-0.11291248
186	0x3eb24949	0.34821537
187	0xba97d4d9	-0.0011583819
188	0x3b407164	0.002936446
189	0x3ebe51cd	0.37171784
190	0x3c7a1452	0.015263634
191	0xbc533bd7	-0.012892685
192	0x3cbc0304	0.022950657
193	0x3d677b89	0.056514297
194	0xbd728dea	-0.05921737
195	0xbbe6bb9d	-0.007041408
196	0xbe1d05c5	-0.15334232
197	0xbe0cc4f3	-0.13747005
198	0x3ce3319d	0.027733618
199	0x3c08ec99	0.0083571905
200	0x3c98517e	0.018593546
201	0x3dc63b2d	0.09679256
202	0x3c7a1ee5	0.015266155
203	0xbdf8b781	-0.121443756
204	0x3d2d786f	0.042351183
205	0x3dbbf80c	0.091781706
206	0xbe550174	-0.20801336
207	0xbd69e520	-0.057103276
208	0x3e0b0271	0.1357515
209	0x3eb70c46	0.3575155
210	0x3c90af30	0.01766166
211	0x3d9d5c3a	0.076836064
212	0x3d105369	0.035235796
213	0x3ee6332d	0.4496092
214	0xbd0b94ea	-0.034077562
215	0xbd505863	-0.050865542
216	0x3b9d9864	0.004809426
217	0x3dc28319	0.09497661
218	0x3d0a2e5d	0.03373562
219	0x3de1d238	0.11026424
220	0xbc8bf6f0	-0.017085522
221	0x3e245b82	0.16050532
222	0x3c86779d	0.016414458
223	0xbd9d217e	-0.07672404
224	0xbe9eda5e	-0.31025976
225	0xbe36c001	-0.17846681
226	0x3da6a6a6	0.081372544
227	0xbe35a560	-0.17738867
228	0x3d5e46f6	0.054266892
229	0x3b7419e6	0.0037246882
230	0x3d092180	0.033479214
231	0x3dc06c0e	0.0939561
232	0xbd9fb1a2	-0.07797553
233	0xbdfa6de5	-0.12227992
234	0x3e68373e	0.22677323
235	0x3e23827c	0.15967745
236	0x3d37bb96	0.04485663
237	0x3d5f0ecd	0.054457474
238	0xbde2839e	-0.1106026
239	0xbe3875ba	-0.18013659
240	0xbe170f47	-0.14751922
241	0x3dda3e47	0.1065641
242	0xbdf5fcf0	-0.120111346
243	0x3eb82ba3	0.35970792
244	0xbdbb0525	-0.091318406
245	0x3d9d0840	0.07667589
246	0xbdcad532	-0.09903945
247	0x3e10fb98	0.14158475
248	0x3c84de58	0.016219303
249	0x3c965b60	0.018354118
250	0x3c9624a5	0.01832802
251	0xbd93dfea	-0.072204426
252	0x3c2372da	0.009976113
253	0x3e6dbf82	0.23217586
254	0x3d736f56	0.05943235
255	0xbddabd8d	-0.10680685

bias f4 [10]
0	0xbe37597f	-0.17905234
1	0x3d2d9db9	0.042386744
2	0xbe0dd052	-0.13848999
3	0x3c8fe7a2	0.017566506
4	0xbdaa38bf	-0.08311605
5	0xbe07362f	-0.13204263
6	0xbdd64aa6	-0.10463457
7	0x3e2c3e63	0.16820674
8	0x3eca29fc	0.39485157
9	0x3ca6d73d	0.020366305
